Project/app/src/main/assets/7claasification.tflite (tflite, 46932 bytes, 10 tensors)

sequential/dense/BiasAdd/ReadVariableOp f4 [7]
00000000: 8c06 0cbe 46a8 aabf d7dd a6bf fcb9 d03e
00000010: a77b a03f c1c8 3a3f 7bfa 7c3e
-0.13674372 -1.3332603 -1.303645 0.40766895 1.2537736 0.72962576 0.24704926

sequential/conv2d/BiasAdd/ReadVariableOp f4 [16]
00000000: 6914 7bbe b090 7ebf 45d0 2fbf e890 5cc0
00000010: 1bc0 a3bf 8c71 8dbf db3b 9bbe 4fe1 79be
00000020: 3892 04bd 3363 1ac0 9c12 e8bf f9e1 89be
00000030: 5e5f a9be 2391 40be 4e3c 5cbe a705 d0bf
-0.24519505 -0.99439526 -0.6867717 -3.4463444 -1.2793001 -1.1050277 -0.30319104 -0.24402355
-0.032366008 -2.4123046 -1.8130679 -0.26930216 -0.33080572 -0.18805365 -0.2150738 -1.6251725

sequential/conv2d_3/BiasAdd/ReadVariableOp f4 [32]
00000000: 1076 543c 677d 943f b27f 2040 23ff 7f3f
00000010: 96b6 82bf 19c5 90c0 45fd 7abf ba44 d6bf
00000020: e5b9 8cbe 19fd f73e 5d35 19bf 15ba d23e
00000030: f147 8fbd 0477 5bbf da45 be3e 91b7 59c0
00000040: 0064 23c0 453a 20c0 2e33 4ebf 8d7d 79c0
00000050: 7500 b8bf 7b09 fdbe cc44 e0bf 71f8 06c0
00000060: 6d8d efbf 27d1 583f a38d dcbf ff58 193d
00000070: b7b2 f7bf a7d4 2d3f 3ad8 5340 813d 18c0
0.012967601 1.160077 2.507794 0.9999868 -1.0211971 -4.52406 -0.9804271 -1.6739724
-0.27485576 0.48435286 -0.5984705 0.41157594 -0.069961436 -0.8572848 0.37162668 -3.401829
-2.5529785 -2.5035565 -0.80546844 -3.898288 -1.437514 -0.49421296 -1.7520995 -2.1089137
-1.8715035 0.8469414 -1.7230724 0.03743839 -1.9351414 0.67902607 3.3100724 -2.378754

sequential/conv2d_2/BiasAdd/ReadVariableOp f4 [32]
00000000: 988c d63e 5a4f e43f 756a 2c3f 15d0 083f
00000010: a14f c3bf aad4 a63f fda7 093f 4870 2cc0
00000020: 9108 e23e 1f70 7fc0 a471 a6bf 8c35 f6be
00000030: fee4 84c0 e625 743f 10b4 d4be 7bc8 973e
00000040: d42f 30c0 329c aa3e 6c58 5abf 7351 0cbf
00000050: bbb4 183f ae95 0b3e 36f0 c2bf 1688 05c0
00000060: 54e3 07c0 0b1c 0abf 36c2 77be 9b6f 83bf
00000070: b36b b5bf 29f2 a7bf f079 59c0 029b b4c0
0.4190414 1.7836716 0.6734994 0.5344251 -1.5258676 1.303365 0.53771955 -2.694353
0.4414716 -3.9912183 -1.300343 -0.48087728 -4.152953 0.9537033 -0.41543627 0.29645142
-2.7529192 0.33322293 -0.8529117 -0.5481178 0.5965077 0.13631317 -1.5229557 -2.086431
-2.12325 -0.5394904 -0.2419518 -1.0268434 -1.4173492 -1.3120776 -3.3980675 -5.643922

sequential/conv2d_1/BiasAdd/ReadVariableOp f4 [32]
00000000: 337b 88be c909 74c0 07be b4bc e5d1 81bc
00000010: dc55 46be 1e3f f5be 5cbe 03c0 106e 50be
00000020: 6da6 01be 4a2d 47be ec0b 14bf 9549 0ebe
00000030: 2863 bac0 7a62 b7be 0a1a 50bd 5ae4 e1bf
00000040: c5da 883c d2d0 1c3f 1fdb 04c0 ea78 c7be
00000050: d96a cdbb 668f f0bd f875 14bf 085a 33c0
00000060: b004 98bf 11d1 09be 8856 55bb ee0f 0ebc
00000070: e590 28be 51fc 70bc 6210 dabf c7d3 75be
-0.26656494 -3.8130972 -0.022063268 -0.015847156 -0.1936869 -0.47899717 -2.0584936 -0.20354486
-0.12661143 -0.1945087 -0.5783069 -0.13895257 -5.824604 -0.3581732 -0.050806083 -1.7647812
0.01670588 0.61256135 -2.075874 -0.38959438 -0.0062688407 -0.11746101 -0.57992506 -2.80237
-1.187643 -0.13458659 -0.0032552797 -0.00867079 -0.16461523 -0.014708594 -1.703625 -0.24006568

sequential/dense/MatMul f4 [7, 32]
00000000: 7dcf 2dbf 5a18 79be f5ec bbbe 8ceb 01bf
00000010: b0dd fcbe cc2e dd3d 100a dcbe ecfb 2ebf
00000020: 45fb e0bd 5158 cabe abd8 4dbf 9bba 02bf
00000030: 8999 d2bd 0ca8 8cbd 97f6 32bf 13fb 89be
00000040: 012b 9fbe b14c eebe baca 89be 3bfd b0be
00000050: d344 24be e86e 3f3d 6b72 0cbf a455 9dbe
00000060: 5039 50bf 3163 15bf ad10 c7be 55be 6dbe
00000070: 5827 07be bb26 37be 834c 11bf 752a e5be
00000080: 444c 21bf 0770 30be d459 f9be c3ae 62be
00000090: 755f 2bbf 8793 533d ce4c 53be 90cd 19bf
000000a0: d892 813d 219f 05bf 0dee fabe 31f1 c2be
000000b0: 7e38 51be 40ad 7fbd 0f84 1abf 0bb2 08bf
000000c0: 467c 96be fb50 a1be 1c05 dfbe 430d 36bf
000000d0: b49e 98be 61db 5fbe 6a69 20bf d532 3dbe
000000e0: 0542 56bf d5cd 1abf 30c9 85be b854 82bd
000000f0: 53c0 0fbd f48d eebe ede8 10bf 05ea e8be
00000100: b398 85bf ff56 7ebd 8d38 29bf 2b20 88be
00000110: 0980 40bf 7031 3e3e 2b66 ddbe bc6e c5be
00000120: e156 07bf aa8b 03bf 8a38 b9be 30bb 06bf
00000130: 1639 7ebf 5ff7 9dbe 46d5 09bf ff8b d2be
00000140: cacc 0cbf a416 a7be d7c0 d0bd 5f11 12bf
00000150: d021 80be 2d04 2abe 4201 1cbf b804 92bd
00000160: 9cd9 57bf d4ad 30bf 9fdc 65be 330f fe3d
00000170: 761c abbd 33dc 4bbf b024 a23e 1b83 dcbe
00000180: acb5 40bf 7ce7 e8bd 3ce6 27bf e813 35bd
00000190: 7710 53bf 6ed2 2bbf 0bdc 68bf ed3b 2fbf
000001a0: ef85 63be ea6b 81be e668 39bf 6d01 e5be
000001b0: 9301 a4be f012 18be f2c7 adbe d81c 08bf
000001c0: 1f7e 63bf 0ed0 91bf 9d4e d4be 39dd f3be
000001d0: 37e3 acbd cda8 e4be 71e4 41bf 7012 f2be
000001e0: f4cd a0bf a2b2 f8be 2b48 94be add5 22bb
000001f0: 7bc0 0fbf 7657 bbbe 0031 d73e 2933 edbe
00000200: e7b3 4ebf 2b63 c8be 787c f6be fa4a 99be
00000210: 9fe1 88bf e7e6 11bf b61b 81bf 02cd 0ebf
00000220: 9922 003d 6d0e 75be 2990 b9be 0caf 31bf
00000230: 658d 15be a1ac 85be 3d22 47be 378d 80bf
00000240: 4355 3bbf d4a1 9abf 9543 2ebf 9f77 8abf
00000250: 2068 ffbe e067 22be 2fa5 30bf 1717 14bf
00000260: 3bc3 67bf 3ad4 77be 46d7 27be d108 02bc
00000270: 372b e8be 8958 d8be 9202 1ebe 413f 0ebf
00000280: 0726 32bf 211d 5dbf 12cd f2be 1a2f 99bb
00000290: ce7a 65bf 8712 3abf 2c84 5ebf 0187 24bf
000002a0: 4fb8 35bd ae43 8fbe ec59 edbe 00fc 0abf
000002b0: 45d4 6cbe 7c28 8abe f68f b3be 8cf7 50bf
000002c0: 41ca 67bf 848a 86bf bf69 0fbf afde 11bf
000002d0: 8ae9 25be 4b87 8fbe af4d 53bf 7dcc 7bbe
000002e0: 1055 45bf 56c9 b7be fa4a 85be 4700 08bd
000002f0: 3675 3bbf 7069 aabe bfef ef3e 6e74 debe
00000300: 1125 14bf f384 8bbe 1ea1 16bf 2bbe bcbe
00000310: b364 1ebf 9ef8 ca3d d3ae 9abe c924 08bf
00000320: fb19 42be 3adc 15bf a6d1 7ebe 5ce3 14bf
00000330: 3ba3 9fbe ef31 82be 4714 bebe c936 ddbe
00000340: 4238 00bf e7c1 e1be 8d32 24be 4702 e1be
00000350: 1a31 c0bd 15a1 44be c55e f3be 72d4 4fbe
00000360: 0c82 37bf 8543 efbe b877 2fbe e3d4 f1bd
00000370: 9392 23bc ac57 fabe a881 02bf b5ce a4be
-0.67894727 -0.24325696 -0.3670422 -0.5075004 -0.49387884 0.107999414 -0.42976427 -0.6835315
-0.10985426 -0.39520505 -0.80408734 -0.5106599 -0.10283191 -0.0686799 -0.69907516 -0.26949367
-0.31087497 -0.46542886 -0.2691248 -0.345682 -0.1604188 0.046736628 -0.5486209 -0.307294
-0.8133745 -0.5835448 -0.3887991 -0.23217137 -0.13198602 -0.17885868 -0.5675737 -0.44758955
-0.63007 -0.17230235 -0.48701346 -0.22136979 -0.6694253 0.051654365 -0.20634767 -0.6007929
0.06326836 -0.52195936 -0.49009743 -0.3807464 -0.20431706 -0.062421083 -0.60357755 -0.5339667
-0.29391688 -0.31507096 -0.43558586 -0.71113986 -0.2980858 -0.2186103 -0.6266085 -0.18476422
-0.8369449 -0.60470325 -0.26130056 -0.06363815 -0.035095524 -0.46592677 -0.56605417 -0.45491043
-1.0437225 -0.062094685 -0.66101915 -0.26587042 -0.75195366 0.18573546 -0.4324201 -0.38561046
-0.5286694 -0.51384985 -0.36175948 -0.52629375 -0.99305856 -0.30852792 -0.53841054 -0.41122434
-0.54999983 -0.3263446 -0.10193031 -0.57057756 -0.25025797 -0.16603155 -0.6093942 -0.07129806
-0.8431642 -0.6901524 -0.22447442 0.12405243 -0.08355038 -0.7963287 0.31668615 -0.43068776
-0.7527721 -0.11372277 -0.65585685 -0.044208437 -0.82447 -0.67117965 -0.9096076 -0.68450814
-0.2221906 -0.25277644 -0.7242569 -0.4472765 -0.3203245 -0.14850974 -0.3394161 -0.5316901
-0.8886432 -1.1391618 -0.41466227 -0.47629717 -0.08441775 -0.44660035 -0.757392 -0.47279692
-1.2562852 -0.48573786 -0.2896131 -0.00248466 -0.56153077 -0.36590165 0.42029572 -0.46328095
-0.8074326 -0.3913816 -0.48141837 -0.29940015 -1.0693854 -0.56992954 -1.0086582 -0.5578157
0.031282995 -0.23931284 -0.36242798 -0.69407725 -0.14604719 -0.26108268 -0.19446655 -1.0043095
-0.73176974 -1.2080636 -0.6807187 -1.0817755 -0.4988413 -0.15859938 -0.6900205 -0.5784773
-0.90532273 -0.24202052 -0.16390714 -0.007936672 -0.4534547 -0.42255047 -0.15430668 -0.5556527
-0.69589275 -0.8637257 -0.4742208 -0.0046748044 -0.8964051 -0.7268452 -0.8692043 -0.642685
-0.044365223 -0.27981323 -0.46357667 -0.5429077 -0.2312785 -0.26984012 -0.3507077 -0.81627727
-0.9054299 -1.0511022 -0.5602073 -0.56980413 -0.1620237 -0.28032908 -0.8254041 -0.24589725
-0.7708292 -0.35895795 -0.26033765 -0.03320339 -0.73225725 -0.33283567 0.468626 -0.43448204
-0.5786906 -0.2724987 -0.58839595 -0.36863837 -0.61872405 0.09910701 -0.30211505 -0.5318113
-0.18955223 -0.58539164 -0.24884662 -0.5815942 -0.31179222 -0.2542872 -0.37124845 -0.4320586
-0.5008584 -0.44093248 -0.16034909 -0.4394705 -0.093843654 -0.19202073 -0.4753324 -0.20295885
-0.7168281 -0.467312 -0.17135513 -0.11808183 -0.0099836765 -0.48895013 -0.5097909 -0.32188955

sequential/conv2d/Conv2D f4 [16, 2, 2, 1]
00000000: 1d54 85bd 36e5 a0bd 7970 c93d 8a68 aabc
00000010: d960 bf3c d1a7 a2bd 122b 65be 8c33 ae3c
00000020: 504c b23d 21b6 b03d 7166 4e3e d5b4 663e
00000030: e899 6f3e 4015 f23c 0fc8 03be 63c6 3bbe
00000040: 3a3d f2bc be3d f03d b556 a7be decb af3e
00000050: f1e0 543e 4b3e 00be 561e a53e 97f9 8bbe
00000060: ecf7 023e 3638 a13d b5a1 fc3d a5aa 003d
00000070: 782e 893e 0bd5 67be d73a 8abd aaad d73d
00000080: 0544 c93d a9ca 7a3d 8285 38bd c1ae c1ba
00000090: 87ae a6bd 5db7 cb3d 437f cc3c 4b27 9cbe
000000a0: 75ea cabd 45c2 26be cfed 41bd fb05 8d3d
000000b0: c271 75bd 65c3 74bd 7d55 0dbe 1de3 dcbd
000000c0: 2273 b63d 37a1 0a3e ab23 8dbd d125 babd
000000d0: 1fbc 8abc cb2e 22bd 3a92 0b3e 25bb 1a3d
000000e0: 6530 0b3d c617 9cbc 376e 1bbe c64b 63bc
000000f0: 2624 a73e e229 90be 0621 89be cb76 9d3e
-0.06510184 -0.078562185 0.098359056 -0.020801801 0.02336161 -0.07942165 -0.22379711 0.021264814
0.08705962 0.08628488 0.20156266 0.2252992 0.23398554 0.029551148 -0.12869285 -0.18337397
-0.02957021 0.117305264 -0.3268334 0.34335226 0.20788933 -0.12523763 0.32249707 -0.2733886
0.12789887 0.078720495 0.12335531 0.03141274 0.26793265 -0.22639863 -0.06749504 0.10531171
0.09827427 0.061228428 -0.045049198 -0.0014776812 -0.08138757 0.09947083 0.024963027 -0.30498728
-0.099080004 -0.16285045 -0.047345933 0.06885906 -0.05992294 -0.059756655 -0.13802142 -0.10785506
0.089086786 0.13538061 -0.06891569 -0.09089244 -0.016935406 -0.039595407 0.1363 0.03777613
0.0339817 -0.019054305 -0.15178762 -0.013873046 0.32644767 -0.28156954 -0.26783007 0.30754694

sequential/conv2d_1/Conv2D f4 [32, 2, 2, 16]
00000000: 6ce3 9fbe ef3a 5a3e 5a80 19bf 769e 6c3f
00000010: c307 ce3d 2b2e 14be bead d3be d306 01bd
00000020: 2b45 493f 3ebc 6fbe d3b8 2fbf 417f 0cbe
00000030: 2b14 173f 63c8 3abf d1e9 9f3e ab35 403e
00000040: f133 b6be 14dc fabc eb97 e2be bf42 a33e
00000050: c578 cf3d 02b2 acbe 511f 80be bea3 7fbe
00000060: f83b 673e a432 063f 7f3e e7be db8d febe
00000070: 3cc3 543f 6d4f 9fbe 7ff9 9f3d 89b1 4d3d
00000080: 4c98 c3bf ab2e c53c 9d88 12be 7900 063f
00000090: 6218 93bd 718e 803e c2e9 893e c292 99be
000000a0: f2d4 263f 60f8 9b3b 5ad8 f4bf d626 403c
000000b0: bfbe 653e e852 0ebf fafe d53e d5ce 863e
000000c0: 57a4 e1bf ed4c 3fbe 35da ca3c 314c 3a3e
000000d0: d61a d73e 15f3 1cbe 070b c33e ed9e 283e
000000e0: 309c c5bd ab76 5d3e 8681 00c0 e5bc 22be
000000f0: 6aac 453f cb64 33be 0a2d d6bd 90fd 0a3e
00000100: 6ea5 8cbc 86f1 88be 892e c63c fb53 7b3e
00000110: 24b3 22bd b2a5 a2be 4f23 583e 425f 043e
00000120: 0522 d03e 1b80 11bd 7103 813a 7555 80be
00000130: 0207 6b3e bb96 303e 4cb0 1f3d 9ff5 2b3e
00000140: 630e 6cbd 454a 07be a3f8 f0bd 61ee 77bd
00000150: 2a17 023c 5115 2b3e 328e acbd a551 313e
00000160: 6398 ae3e 7999 b2bd f9dd 943c 88b8 8ebe
00000170: bf9c ce3e 296c fc3d 7cd9 873e 4ea1 b23c
00000180: d8e7 bcbe 9e1d 8e3e 99c5 a7c0 039e 643e
00000190: 0c91 30bf fc5e a1be a2f6 68bf 4f9e 44bf
000001a0: ec17 fbbe 1698 6c3e 733b ecbd fb35 353f
000001b0: 8e4b 643d 978e afbf 9e48 f13d 4de2 2ebf
000001c0: 4cf1 babe 5e3a 173e fe87 a4c0 94a0 023d
000001d0: 5d0e 44be 71b5 25bf 0d69 32c0 3a36 09c0
000001e0: 5718 63be ef02 fd3d 73d4 d5bc d4a9 983d
000001f0: 0c35 3dbe ad26 a8bf 46b1 1c3e 00f9 3bbf
00000200: c8fa 8b3e 168f b5bc a2ca 143e 10af edbf
00000210: ade2 0dbd c9e4 eb3d 02f2 89bd 4669 20be
00000220: 0847 0dbf c32d c33d 1ee6 b23e 9aca a33d
00000230: 6c99 2abf e9f2 b33e 56c1 ca3d 9a2f 813e
00000240: 0d8d 45be 87f0 463e d308 87be e5d1 d6bf
00000250: 3f65 7b3e b95d bbbe b4f3 b4be df05 bd3d
00000260: 8d46 39bf 12c7 1d3e 7fa9 0ebc a8cf dbbd
00000270: 9a5e 32bf 9ee7 973c 9d75 043d a708 07bd
00000280: 8d6e 8dbf c34c 783e c464 b33d effd 3ebf
00000290: 01ef 993f 4c96 5f3d bcc0 6f3e 04ca 1d3f
000002a0: d54f 6abe ed1f 3cbe df0f 92c0 e164 f63d
000002b0: ba0b a6be 8989 2ebe f860 dcbd d5a9 153f
000002c0: d1c2 97bf 32d6 9abf 0258 713d 08c8 05c0
000002d0: 0ca4 2cbd 5384 0d3f b79e 1e3e f841 14be
000002e0: c4c4 1c3d e282 52c0 71d4 86c0 e176 7ebf
000002f0: ddaf dabe a8a6 08bf 7106 b3bf bc34 1ebe
00000300: dcf2 df3e b06a 89bd 4310 a3bf 7228 573d
00000310: 4306 d7bd 6144 eeba f4b8 fbbe 72f7 3d3f
00000320: 3cb9 d33e d6b3 27be 498f 173e 292e 953e
00000330: 7d3e 803e 81c5 2fbe 101c 823d 4955 103f
00000340: 57a2 973c 05fb 593e 1e11 f3bf 9734 2ebe
00000350: a0a2 65bf c8b5 32bf 5fdf b6be c19d 5abf
00000360: 2a10 00be 060b 953e b00b 9b3d 5422 7b3e
00000370: bd67 a4bb f811 963e 060a 243e 7cd3 70bf
00000380: f459 70be 1035 84bf 2bdf b0be 7733 b2bf
00000390: e4fa afbf 38cf 98bf d24e e6be cee2 abbf
000003a0: 4e80 f33e de32 e1bf b0e4 2d3b ecda 09bf
000003b0: 8bcc 873e 9afc 6bbb ab65 eabf c240 12c0
000003c0: 0365 153f 5354 71bf bb6f cebe 28d2 cabf
000003d0: 14bd 19bf 12ea b0bf cc5d 74bd 607b 48bf
000003e0: f94f 9e3d 56cf acbf 15b4 1f3f 7916 1cbf
000003f0: 3949 1b3e b0ac 133f 2d14 70bf 4dec 85bf
-0.31228197 0.21311544 -0.59961474 0.9242929 0.10060074 -0.14470737 -0.41343492 -0.03150065
0.78621167 -0.23411652 -0.68641394 -0.13720419 0.5901515 -0.72962016 0.31233075 0.18770473
-0.35586503 -0.03062252 -0.4425653 0.3188686 0.10130457 -0.3372956 -0.25023893 -0.24964806
0.2258147 0.5242102 -0.45164868 -0.49717602 0.83110404 -0.31115285 0.078112595 0.05021814
-1.5280852 0.024070105 -0.14309926 0.5234447 -0.07182385 0.25108674 0.26936156 -0.2999478
0.6516868 0.004759833 -1.9128525 0.011728009 0.22436045 -0.55595255 0.41796094 0.26329675
-1.7628278 -0.18681689 0.024762252 0.18193127 0.42012662 -0.15327103 0.3809435 0.16466875
-0.09648931 0.216273 -2.0079055 -0.1589237 0.7721621 -0.17518918 -0.10457809 0.13573289
-0.017168727 -0.26746768 0.024192112 0.24543755 -0.039721623 -0.3176704 0.21107219 0.12926963
0.40650955 -0.03552256 0.0009842945 -0.250652 0.22951892 0.17244999 0.03898649 0.16792916
-0.057630908 -0.13211925 -0.11766174 -0.06053007 0.007940093 0.1670735 -0.08425559 0.17316301
0.34100637 -0.08720679 0.018172251 -0.2787516 0.40353963 0.123253174 0.26533115 0.021805432
-0.36895633 0.2775697 -5.242871 0.22325902 -0.68971324 -0.3151778 -0.9100133 -0.7680406
-0.49041688 0.23104891 -0.115347765 0.7078549 0.055736117 -1.371539 0.11781429 -0.6831406
-0.3651222 0.14768359 -5.1416006 0.03189142 -0.19146104 -0.6472998 -2.7876618 -2.1439347
-0.22177254 0.12354075 -0.02610228 0.07454267 -0.18477267 -1.3136803 0.15302 -0.7342682
0.27339768 -0.022162955 0.14530423 -1.856905 -0.034640003 0.11518247 -0.067356125 -0.15665159
-0.5518651 0.09530213 0.3494119 0.079976276 -0.66640353 0.35146263 0.09900157 0.2523163
-0.19292088 0.19427691 -0.2637392 -1.6782805 0.24550341 -0.36594942 -0.3534218 0.092296354
-0.72373277 0.1540797 -0.008707403 -0.10732967 -0.696756 0.01854306 0.032338727 -0.032967236
-1.1049362 0.24248032 0.08759454 -0.7460622 1.2026063 0.054586694 0.23413366 0.61636376
-0.22882016 -0.18371554 -4.5644374 0.1203096 -0.32430822 -0.17044653 -0.10760683 0.5846227
-1.1856328 -1.2096617 0.05892182 -2.090334 -0.042148635 0.55280036 0.15490232 -0.1447829
0.038273588 -3.2892385 -4.213433 -0.99400145 -0.42712298 -0.533793 -1.3986341 -0.15449804
0.43739974 -0.06709802 -1.2739338 0.052528806 -0.10499241 -0.0018178337 -0.49164546 0.74205697
0.4135226 -0.16377196 0.14800753 0.2913678 0.25047675 -0.17165186 0.06353009 0.56380135
0.018510027 0.21287163 -1.8989599 -0.17012249 -0.8970127 -0.69808626 -0.35717294 -0.85396963
-0.12506166 0.29109973 0.075705886 0.24524814 -0.0050172494 0.29310584 0.16019449 -0.940727
-0.23471814 -1.0328693 -0.34545264 -1.3921956 -1.3748441 -1.1938238 -0.4498201 -1.342859
0.47558826 -1.7593648 0.0026534013 -0.53849673 0.2652324 -0.0036008717 -1.8312277 -2.2852025
0.58357257 -0.94269294 -0.4031962 -1.5845385 -0.60054135 -1.3821433 -0.059659764 -0.78313255
0.07730097 -1.3500774 0.6238416 -0.6097179 0.15164651 0.57685375 -0.93780786 -1.0462738

sequential/conv2d_2/Conv2D f4 [32, 2, 2, 32]
00000000: 097b 8fbf 7da8 91bf e162 a73d 464f a5be
00000010: 6539 1b3d 9104 55bf 51e5 e2bd f24f b9bd
00000020: 4aeb 59be 613d 9bbe 85b5 d73e 4013 43bf
00000030: ac95 d7bd e046 a6bf b9cf 38bf 2cb7 9ebe
00000040: dfa6 053e 974b 8c3e 7e12 c8be 3e46 b9bf
00000050: ca24 513e 405b 18bf bbb1 84bf d5cf 7cbd
00000060: 1b1d 0a3f 81d3 19c0 203a 50bf 93d7 a5bd
00000070: 4a7b 82bf e26c d2bd d2ac 2fbe 4cd9 90be
00000080: 688b 12bf fcda b4be 8b3f 453e 2332 94bd
00000090: b79f 823e 7a33 8cbd 1e76 13bf 9166 dc3e
000000a0: 2737 ce3e b086 113f 4ce1 d53e 6bbf 8bbe
000000b0: 3bea a6be cc1b 46be 50b9 cbbe f2c0 90be
000000c0: 1ace acbe bfd5 f2bf 2281 b53e d3c9 573f
000000d0: 31a4 93bf dc67 c7be edd0 2c3f bfa4 55be
000000e0: 8270 eb3c 6543 99bf ef46 a23f 9457 9fbc
000000f0: b340 253f 8edb 133e 0568 eabd 210a 22bf
00000100: 14b1 84be 9a07 b5bf 170f 07c0 710f 90bf
00000110: fac4 6cc0 3c34 4cc0 57fb c4bf 5017 0ebf
00000120: 7354 dcbf 54cd 473f 88df c4bf 4ad0 7bc0
00000130: 7545 5bc0 af4a 31bf 968f c5bf 6436 03c0
00000140: cf7c 38bf c128 e43d 3dd1 45c0 1a08 4cc0
00000150: ed11 2dbf 881a 6abf f368 32c0 2187 fcbe
00000160: e8d0 09c0 6594 92be bf35 d2bf b7c7 07bf
00000170: e570 cfbf fcc1 da3e 456f fdbf ad58 91c0
00000180: 915e 233f 6987 b4bf e18f 75bf eb3d 5d3d
00000190: 852e cf3f 0118 1cbf bd06 f5be e926 de3f
000001a0: 14d5 e63e fdf3 d43f e687 12bf 9cba 7f3f
000001b0: 058e 62c0 8019 fa3e 7184 cfbe f5a4 3fc0
000001c0: d2db cabe 8dfd 21c0 9732 74c0 a8b9 7a3f
000001d0: 0c70 3a3e 05b4 acbf eb04 a63e 96f0 a6bd
000001e0: 9ae0 abbe 011a 4f3e 39b0 a33f f793 693d
000001f0: 9160 b33f c2fa 393f 76d2 2c3d 765c c0bf
00000200: 1633 c23e b8c0 673c d46f 1ebf 8bf4 47bf
00000210: d34e 413d 967c 893e 9fb8 003d c9cc ecbe
00000220: dbe1 753f a3e3 03bf fe4e a1bf 5b66 4bbf
00000230: ea09 133e 4b74 933e b468 13bf e8fb 44bf
00000240: ba7f c3bf 4f40 8abf b2f5 edbe 576b ad3e
00000250: 6fea 253f e293 89bf 01e3 bc3b 0fc3 80bf
00000260: 4f60 0a3d 5121 143d 62f2 8d3e 90b1 debf
00000270: 4895 d93d 66f3 d9bd 1be0 aa3e 3613 29c0
00000280: e2b7 353e 2dbc f03e 3cae 4abf 665e 20bf
00000290: 2804 653e da5c 993e a2f8 4f3e 268a 7c3e
000002a0: 937f bb3e dac3 053e 9a14 39bf 797c abbf
000002b0: eab4 a93b 99bf 12bf 0a7a 47bf dd75 1bbf
000002c0: bbe9 563e 2189 82bf 0a35 47be d7c9 2a3e
000002d0: d430 953e 0aec 463e d43b 8ebd f28f a0bf
000002e0: 9111 a03e 7586 0bbf 668b 7e3e b496 b1bf
000002f0: 4150 7e3f bc17 dfbe b0aa ee3d 9ab5 dbbf
00000300: 61c5 733f e2e6 87be 12eb 813e c8d4 e4bf
00000310: 476b f63e 5c95 92bd df95 6bbf 920a 033f
00000320: a6d2 d6be 56af d3bd 2b70 683f d014 d6c0
00000330: af0c 23bf 4f94 52bf b250 863f 51f0 b1bf
00000340: ed2e 453f 8e7e d2bf b9cb c2bf 4892 a73e
00000350: 2929 7a3f a9ef 8dbf d3b7 35bf bc80 84be
00000360: f503 82bf 689c 4fc0 e88d 8ac0 c2cb c83c
00000370: 262e 2f3e cf3b 92bf e9da 623e aadf ad3e
00000380: 007b 413f f5ea 30bf 1874 8bbe 64ef 66bf
00000390: 5186 133f 6c95 fd3d 92f6 a1bf 1109 973e
000003a0: 8640 cd3d 016a 4a3f 00df d53e bf3a 0dc0
000003b0: 7116 e2bd 5a76 36bf e88e c63e 91b0 43bf
000003c0: 2a90 813e 024e 8fbf 11bb 36bf cd36 1ebe
000003d0: ba30 a43e d870 82bf 44f5 62bf f3cc 923d
000003e0: 214c bfbf 8886 4bc0 e284 d6bf 72a4 c43e
000003f0: 3b1e e9bc 6657 f7be 79c2 91bd 297a 323e
-1.1209422 -1.1379544 0.081731565 -0.32287043 0.037896533 -0.8321009 -0.11078895 -0.090484515
-0.21281162 -0.30320266 0.42130676 -0.7620125 -0.105265945 -1.2990379 -0.7219196 -0.30999124
0.13051938 0.2740142 -0.39076608 -1.4474561 0.2042419 -0.59514236 -1.0366739 -0.06172164
0.5395066 -2.4035342 -0.8133869 -0.08097758 -1.0193875 -0.10274674 -0.1715577 -0.28290784
-0.5724397 -0.35323322 0.19262521 -0.07236125 0.25512478 -0.06845756 -0.5760211 0.43047002
0.40276453 0.5684614 0.4177345 -0.27294478 -0.3260058 -0.19346541 -0.3978982 -0.28272206
-0.33750993 -1.897148 0.35450083 0.84292334 -1.1534482 -0.38946426 0.67506295 -0.20863627
0.028740171 -1.1973692 1.2677897 -0.01945094 0.6455185 0.14439222 -0.114456214 -0.63296705
-0.2591635 -1.4142945 -2.110296 -1.1254712 -3.6995225 -3.1906881 -1.5389203 -0.5550432
-1.7213272 0.7804768 -1.5380716 -3.934588 -3.4261143 -0.69254583 -1.5434444 -2.0501947
-0.7206544 0.11140586 -3.090896 -3.1879945 -0.6760548 -0.91446733 -2.7876556 -0.49321845
-2.1533756 -0.2862884 -1.6422652 -0.53039116 -1.6206328 0.42726123 -1.9799582 -4.5420747
0.6381617 -1.4103824 -0.95922667 0.054014128 1.6186072 -0.6097413 -0.47856703 1.7355624
0.4508444 1.6636959 -0.57238615 0.9989412 -3.5399182 0.4884758 -0.40530732 -2.9944432
-0.39620835 -2.5311005 -3.8155878 0.9793954 0.18206805 -1.3492438 0.32425627 -0.08151357
-0.33569795 0.20224763 1.2788154 0.057025876 1.4013845 0.7264825 0.0421929 -1.5028217
0.379296 0.014145069 -0.61889386 -0.7810752 0.047194313 0.26852864 0.03142607 -0.4624999
0.96047753 -0.5151922 -1.2602232 -0.7945306 0.1435925 0.28799662 -0.5758164 -0.7694688
-1.5273354 -1.0800875 -0.46476513 0.33870956 0.6481084 -1.0748255 0.0057643657 -1.0059527
0.033783253 0.036164586 0.27723986 -1.7397938 0.10624176 -0.10642128 0.33374104 -2.6417975
0.17745927 0.47018567 -0.7917211 -0.6264404 0.22364867 0.29953653 0.2030969 0.24662074
0.3662077 0.13062993 -0.7229706 -1.3397361 0.0051790373 -0.57323605 -0.7792059 -0.6072672
0.20987599 -1.0198098 -0.19453827 0.16678558 0.29138815 0.1942598 -0.06945005 -1.2543929
0.31263402 -0.5450204 0.24857864 -1.3874116 0.9934121 -0.43572795 0.1165365 -1.7164795
0.9522305 -0.26543337 0.25374657 -1.7877436 0.4812872 -0.07157394 -0.9202556 0.51188004
-0.41957587 -0.10336177 0.90796155 -6.6900406 -0.6369123 -0.8225755 1.0493376 -1.3901464
0.7702473 -1.6444871 -1.5218421 0.3272879 0.97719055 -1.1088763 -0.7098362 -0.25879467
-1.0157458 -3.2439213 -4.3298225 0.024511222 0.17107448 -1.1424502 0.2215382 0.33959705
0.7557831 -0.69108516 -0.2723701 -0.9020903 0.57626826 0.123820156 -1.2653372 0.29499105
0.100220725 0.79068 0.41771698 -2.2067106 -0.110394366 -0.7127434 0.38780904 -0.76441294
0.253053 -1.1195681 -0.7137919 -0.15450592 0.32068425 -1.0190687 -0.88655496 0.07167997
-1.4945108 -3.1800861 -1.6759303 0.38406712 -0.028456798 -0.48308867 -0.07117171 0.17429413

sequential/conv2d_3/Conv2D f4 [32, 2, 2, 32]
00000000: 1c6e e1bf 54e2 f6be b087 49bf 1250 2d3e
00000010: 67bd 223d 00a1 0cbe 2da5 bdbe df75 a9be
00000020: d013 05be 3506 533d d1c2 253e 87ac b3be
00000030: 9909 37be 82fa 98bd 53a2 423e 6498 233d
00000040: d678 4f3e 80ab 92bd 53f8 7b3e 653e 093f
00000050: 1eaa 483e f6e8 15be 1e67 e23d 50c2 323e
00000060: a6a0 f3be bb1e e0bd 41de 23be 2341 63be
00000070: 38fa d1bd f2e4 843e e2c9 f9be 255f 11bf
00000080: d538 93bf f313 15bf 2a23 b2bf 04fd 1abe
00000090: f1b5 dd3d a8de 83ba d98c 44be 439a aa3e
000000a0: 7a7e 9b3e 206b 18be f437 cdbc 8a38 3abf
000000b0: 347a 373e e73e 983e e46e bc3c 2c3a 8ebd
000000c0: e321 87be 8ef2 503e 5049 043b d74d 8b3e
000000d0: 55b4 8ebe 114f 15bc 4180 a13e 0cdb 38bd
000000e0: 5f45 7e3e deea 4abf 525e 5fbe 69ac 84be
000000f0: a9a3 45bd d0b2 8d3e 4517 2dbe 10ea 92be
00000100: 0e45 b8be 3a28 4ebf f8e8 bd3d 5b07 8bbf
00000110: 0e29 dfbd 1060 773d 1523 24bf b928 0ebf
00000120: f7e9 21c0 4c87 e2bd 114e b0be 0f8e c4be
00000130: 3960 24bf 65b9 1bc0 afd1 503f e9a2 8fbb
00000140: 1a6c 053f 950b febd cd92 42bf dbc9 013d
00000150: 2db6 0bbe a4d6 803f ee25 59bd 63f0 c3be
00000160: c612 1d3f 6797 63bf c105 1e3f d7e5 cebe
00000170: e9d7 d73d 23aa 26bf d350 1dbf c7ba b53e
00000180: f338 b8bf 4a65 9bbf d885 1740 2190 56bc
00000190: a4c2 82be 63ef 473f 8bcf 563d 6a0f 99be
000001a0: 14d4 40c0 47f2 c2be 0b53 5cbf 8187 a53e
000001b0: cc05 b7be 11a9 cfbf fc65 263f cf50 b13e
000001c0: dfb4 e1bd b783 7abf 8c48 81bf 6f07 fe3d
000001d0: 7de9 a1bd ab4b 173f 06df fcbd 64d2 63be
000001e0: fb90 ab3e 524b 1dbf 17f0 f43e fc06 cdbe
000001f0: 25ac 043e d925 9fbe 969b 36bf d37b c53d
00000200: 6d0c 1c3f f399 813d 8b70 c83e 4785 babe
00000210: 0881 19bf 3ee4 92be f34f f23d 0a9b 5b3e
00000220: d9ef aabd ea95 c0be 5a03 3abf ec47 87bc
00000230: 4494 09be 166f 1d3f 66a3 67be 17c2 43bf
00000240: 5b06 cdbe 0bbe 52bf 07b4 a9be a4de 4fbf
00000250: d2ef a4bf 0430 e43e 57b2 d43e f56c 9a3c
00000260: fb52 fbbe 82fa 7c3e fc77 bfbe b658 2c3f
00000270: f2cb 09bf f321 40be 7b07 3ebf 961e 0fbe
00000280: 813d 8e3e 7aa3 493e b173 003e fca1 153c
00000290: a5a8 eabe 9927 acbe 9be5 cdbe c2e1 933e
000002a0: 9d79 513d d896 453e 4276 fdbe e401 6a3d
000002b0: 33a6 36bd 1c3e 8d3f ca68 afbd c87b b4bf
000002c0: b0e2 efbc 3821 84bf ee7c e6be f44f 06bf
000002d0: 4eb5 08c0 38d2 4cbd e1ef ba3d 6437 c9bc
000002e0: 59a9 bdbe e5a2 05be 5553 6fbe 92c6 cdbb
000002f0: f75b 36bf e2a8 20bf 00f3 81bf b21a e03e
00000300: a53a fdbe 9080 23bf d539 5c3f ecfa 48bf
00000310: 01b7 31be 2f9a 073f 74ed f3bb 560e 243e
00000320: 9ff8 3dbf cf10 03bc 0a7c 60bb 47e3 4dbd
00000330: 7196 1fbf eaf6 d0bf 9b7e aebc c5d0 aabd
00000340: 7f09 d7be f363 b0bf ae1d c1bc 43f9 2dbe
00000350: b1cf a0be 21d8 933d f73e b2be e2ed babd
00000360: 1c30 70bd 5a5e 32be 129d b9bf cf1d a9bf
00000370: 57d5 0c3f 4f73 a7bd e4ac b2be 505c a43e
00000380: d3b8 84be ed91 773e 22f5 313f a450 2ebf
00000390: dd51 613d 1756 73be cecc 8abe 847e 083e
000003a0: deac 03bf 06d3 1fbe 45ed a9bd eeee 73be
000003b0: 5fa7 0cbf 79d5 25be 1fd8 debd 7d21 48bd
000003c0: df42 2b3d 8ad8 bebe 57d1 3dbd eec0 3c3c
000003d0: b6a3 6d3e f7af 5cbf d808 bebe aa8a e7be
000003e0: 7487 02bf bf0f d2bd 1abc dabe 0d98 c3bf
000003f0: 0fd8 4dbf 34d4 ce3e 5b23 9ebd 7178 d2bd
-1.7611728 -0.4821955 -0.7872267 0.16925076 0.03973141 -0.13733292 -0.37040082 -0.3309774
-0.12995839 0.05151959 0.16187598 -0.35092565 -0.17874755 -0.074696556 0.19007234 0.039940253
0.20260939 -0.07161617 0.24606447 0.5361083 0.19596145 -0.14639649 0.11054824 0.17456937
-0.47583503 -0.10943361 -0.16002752 -0.22192816 -0.102528036 0.2595592 -0.48786837 -0.56785804
-1.1501719 -0.58233565 -1.3916981 -0.1513558 0.10825718 -0.0010060864 -0.19194354 0.33320817
0.3036993 -0.14884615 -0.025051095 -0.7274252 0.1791771 0.2973549 0.023002096 -0.06944689
-0.2639304 0.20405027 0.00201853 0.27207825 -0.27871957 -0.009113089 0.31543162 -0.045130774
0.2483115 -0.7926463 -0.21813324 -0.2591279 -0.04825178 0.27675486 -0.16903408 -0.286942
-0.35990185 -0.8053013 0.09272951 -1.086162 -0.108965024 0.060394347 -0.6411603 -0.5553089
-2.529905 -0.11060962 -0.3443456 -0.38389632 -0.64209324 -2.4331906 0.8156995 -0.004383434
0.52118075 -0.12404553 -0.7600525 0.031686645 -0.13643713 1.0065503 -0.05301469 -0.38269338
0.6135677 -0.88902897 0.6172753 -0.4040973 0.105392285 -0.6510336 -0.6145145 0.35494062
-1.439238 -1.2140286 2.3675442 -0.013095886 -0.25539124 0.7809965 0.052444022 -0.29894572
-3.0129442 -0.38075468 -0.86064214 0.32329944 -0.3574661 -1.622347 0.64999366 0.34631965
-0.110208265 -0.9785723 -1.0100265 0.124037616 -0.079058625 0.59099835 -0.12347226 -0.22248226
0.3350905 -0.61443055 0.47839424 -0.4004439 0.12956293 -0.31083563 -0.71331155 0.09642758
0.6095646 0.063281916 0.39148363 -0.36429808 -0.5996251 -0.2868976 0.11831655 0.21445861
-0.083465286 -0.37614375 -0.72661364 -0.016513787 -0.13435465 0.6149763 -0.22620925 -0.7646803
-0.4004391 -0.8232123 -0.33145162 -0.811991 -1.2885687 0.44567883 0.41542313 0.018850783
-0.49086747 0.24704936 -0.37396228 0.6732286 -0.5382682 -0.1876295 -0.74230164 -0.13976511
0.277813 0.19691268 0.12544133 0.009132858 -0.4583179 -0.3362396 -0.40214238 0.28883177
0.05114137 0.19295824 -0.49504286 0.05713071 -0.044592094 1.1034579 -0.08564909 -1.4100275
-0.029282898 -1.0322638 -0.4501719 -0.5246575 -2.136066 -0.050005168 0.091277845 -0.024562545
-0.37043265 -0.1305042 -0.23371632 -0.006279775 -0.7123408 -0.62757695 -1.0152283 0.43770367
-0.49458805 -0.63868046 0.86025745 -0.78507876 -0.17354967 0.5296964 -0.007444078 0.16021094
-0.7420749 -0.007999613 -0.003425362 -0.050265577 -0.6233893 -1.6325352 -0.021300605 -0.08340601
-0.41999432 -1.3780502 -0.023573723 -0.16989617 -0.31408456 0.07218958 -0.34813663 -0.09127404
-0.05863963 -0.17418805 -1.4501059 -1.3212222 0.5501303 -0.0817629 -0.3489753 0.3210168
-0.2592226 0.2417676 0.6951467 -0.680918 0.05500971 -0.2376331 -0.2710938 0.13329512
-0.5143565 -0.15607843 -0.08297209 -0.23821613 -0.5494289 -0.16194715 -0.108810656 -0.048860062
0.04181182 -0.3727458 -0.04634222 0.011520607 0.23206982 -0.86206 -0.37116122 -0.4522298
-0.50987935 -0.102569096 -0.42721635 -1.5280777 -0.80407804 0.40396273 -0.07721587 -0.102768786
