Project/app/src/main/assets/converted_model_4layer.tflite (tflite, 46272 bytes, 10 tensors)

sequential/dense/BiasAdd/ReadVariableOp f4 [2]
00000000: a912 80be 4811 803e
-0.25014237 0.25013185

sequential/conv2d/BiasAdd/ReadVariableOp f4 [16]
00000000: bb82 08bf 5e5d f7bd a8f7 e5be eb7f 2fbf
00000010: 345e 2fbf e9a8 75bf ea5f a8bf 4f6e 20bf
00000020: a74e b4be f109 0dbf 6bba febe 2ec2 7abf
00000030: 3609 4cc0 b0fb 9dbe d78f ecbe 578d 3cbf
-0.5332448 -0.12078355 -0.4491551 -0.6855456 -0.6850312 -0.9596086 -1.3154271 -0.6266832
-0.35216257 -0.55093294 -0.497516 -0.97952545 -3.1880622 -0.30856085 -0.4620349 -0.7365317

sequential/conv2d_3/BiasAdd/ReadVariableOp f4 [32]
00000000: 65db 7bbf 4745 6ec0 2d6f e3c0 cefa b0c0
00000010: fea0 a7c0 8be9 953f c621 c6c0 6433 3fc0
00000020: 94c6 883f b8ce 723f 09d2 0b3d 78c8 5c3e
00000030: 1bc9 0140 874e 77bd fd12 53c0 95cc c1c0
00000040: 7942 3f40 b9b8 bfbc 8a76 a63e 4419 69c0
00000050: 288e 8ec0 443b 393f 93d3 9ac0 fe97 f73f
00000060: 8e7c 73c0 2ef6 1e40 08c2 7a3d 5099 9dc0
00000070: a2f3 ddc0 17a0 d1c0 f0f6 e03f 7fd7 eb3f
-0.98381644 -3.7229784 -7.1073213 -5.530616 -5.2384024 1.1711897 -6.1916227 -2.9875116
1.0685601 0.9484668 0.034135852 0.21560848 2.0278995 -0.060377624 -3.298034 -6.0562234
2.9884322 -0.023403512 0.32512313 -3.642167 -4.454853 0.7235606 -4.838327 1.9343259
-3.8044772 2.4837756 0.0612202 -4.924965 -6.9359903 -6.550792 1.7575359 1.8425139

sequential/conv2d_2/BiasAdd/ReadVariableOp f4 [32]
00000000: 5b2e 47c0 f182 e5bf b15f 4abf a21e 46bd
00000010: b330 0abf 5827 553e 1aa5 aebf 1c5a 293f
00000020: 6326 8b3f 946f 803f 44a2 45c0 a5bf 0640
00000030: 9083 77c0 23fe 9fbf 417a 86be e3a6 9bc0
00000040: e019 83c0 0e17 1c40 7397 be3f 4bd7 4dbf
00000050: 9626 fd3a fb32 fabf a502 5b3f b2ba d03e
00000060: b129 a33f 367d f9bd 1acd 863e f48c 8f3f
00000070: 538c 1cc0 346b 18c0 4f45 43c0 6305 13c0
-3.1122043 -1.7930585 -0.79052263 -0.048369057 -0.5398056 0.2081579 -1.3644135 0.6615312
1.087109 1.0034051 -3.088029 2.105447 -3.867405 -1.2499431 -0.26265147 -4.864122
-4.0969086 2.4389071 1.4889969 -0.80406636 0.0019313868 -1.9546808 0.8555091 0.40767437
1.2747098 -0.12182085 0.26328355 1.121489 -2.4460647 -2.3815432 -3.0511053 -2.2972038

sequential/conv2d_1/BiasAdd/ReadVariableOp f4 [32]
00000000: ddbb 86be 9075 88bf 85c4 08be 2873 a0bf
00000010: 74ea 713f 1038 b2be 7535 1ebe 4d36 97c0
00000020: e005 7ebd d4c6 5dc0 b647 0abd 453a 87ba
00000030: 3290 65c0 7892 91c0 aa9d b0bd 1535 6fbd
00000040: 463d 06be c317 64bf 3c6c 04bd 030d 66be
00000050: 626e 89bf cfb6 22bf 09f3 9ec0 5882 8bbf
00000060: d87e 4ec0 43b7 dabe 7528 3cbd 80da 2cbd
00000070: 4856 ecbd 7c6a 033f fbf9 c9bf 1145 c4bd
-0.26315203 -1.0660877 -0.13356216 -1.2535143 0.9449837 -0.34808397 -0.1545008 -4.7253785
-0.06201732 -3.4652605 -0.033759795 -0.0010317048 -3.586926 -4.5491295 -0.08623822 -0.058400232
-0.13109311 -0.8909876 -0.032329783 -0.22465901 -1.0736811 -0.63560194 -4.9671674 -1.0899153
-3.226492 -0.42717943 -0.04593702 -0.042200565 -0.11539894 0.5133436 -1.5779413 -0.09583486

sequential/dense/MatMul f4 [2, 32]
00000000: 6f01 d4bd 3de7 1dbe 4590 483e c979 583d
00000010: efad 863e a3b6 b7bd 2a02 0abe 7430 793d
00000020: c4d1 823d 6dfd 2a3e b386 1ebe d2d7 743e
00000030: b557 78bd f4b9 8f3d 42f3 84bc 853b 0f3e
00000040: 019b 9cbd ea2a 8fbe 39f0 24be 1eab 4d3e
00000050: 8acd 40be 2b32 443e 2e86 4f3e 53a3 04be
00000060: 2e74 a33e caa4 2b3e ecdd eabd c020 953d
00000070: a2b4 013d 3dd9 b0bd 20f0 cc3c b046 273e
00000080: dc49 4fbe fad5 53be db8e 0f3e 8eff 893c
00000090: fef0 253e c893 373d 03c8 5fbe 388a 0bbe
000000a0: 4a9c 343e 4ca4 463d 1583 8dbd b94f 8e3c
000000b0: 5de7 043d 628a 9abc 593e 9ebd 9e28 2b3d
000000c0: c828 033f 76b3 c1be 2ca6 85be 0434 f83d
000000d0: a4e2 9cbe 8ccf 883e 074a 173e 883b eabc
000000e0: 8f7e 113e 75c9 883e 2078 31bc 24b0 8a3c
000000f0: 1fea 14bd 2dd8 29be 26c3 a93d b97c 4c3e
-0.10351836 -0.15420242 0.19586284 0.05285052 0.26304576 -0.08970382 -0.13477388 0.060837224
0.06387666 0.16698237 -0.15481071 0.23910454 -0.06063052 0.070178896 -0.016229276 0.13987549
-0.07646752 -0.27962428 -0.16107263 0.20084807 -0.18828407 0.19159763 0.20266029 -0.12952928
0.31924576 0.16762081 -0.114681095 0.07281637 0.031666405 -0.08635185 0.025016844 0.16335559
-0.20243019 -0.20687094 0.14019339 0.01684549 0.16205212 0.04481867 -0.21853642 -0.13626945
0.17637745 0.04849653 -0.069097675 0.017372 0.032447208 -0.018864814 -0.077267356 0.041786782
0.512341 -0.3783223 -0.26103342 0.12119296 -0.30641663 0.26720846 0.14774333 -0.02859284
0.14208435 0.267162 -0.010831863 0.016929694 -0.036356088 -0.16586371 0.08289175 0.19969453

sequential/conv2d/Conv2D f4 [16, 2, 2, 1]
00000000: b174 fcbd 027d 9339 f7c8 883b 9381 f53c
00000010: ca5e 03be a0ec 0cbc fc04 a33d 10b1 cc3c
00000020: e286 663e 555f 053e b48f 2d3d a2a9 873d
00000030: 5647 623d 8962 0e3e 9f72 3b3e 7b15 a33e
00000040: 8c71 883e 2e3f 40bd 6d74 7e3e e042 4a3e
00000050: 06f0 17be 378f 8b3e e8ec a8be 4d13 e73e
00000060: d7af 6bbe 16e5 9d3e 2c68 bbbe 972e 9c3e
00000070: a84d 553e 79ec 073e 45da df3d 969b 1a3e
00000080: 0a33 0a3f 7a60 e9be 5285 f4be fe0b df3e
00000090: c8b6 0a3c a987 6e3b 2a60 90be 7e03 50be
000000a0: 9680 433e 43ee 0a3e 7ad9 09be 8699 13be
000000b0: 18ea b33e 9b06 b5be d395 6a3e 794f 8dbe
000000c0: 4719 05bd 3efc 08bd a6c3 563e 036d 623e
000000d0: 6e3a 70bd c4d1 37be 9cd3 4abd 77d6 60bc
000000e0: 1989 453e 4e53 763e b0de e0bd 5a46 54be
000000f0: 71a5 84be 0bb2 a0bd b225 9bbe b837 96be
-0.123269446 0.00028131163 0.0041743475 0.029969012 -0.12829128 -0.008601338 0.07959935 0.024986774
0.22512391 0.13024648 0.042373374 0.06624152 0.055243813 0.13904776 0.18305443 0.31852326
0.2664913 -0.046935253 0.248491 0.19752073 -0.14837655 0.27257702 -0.32993245 0.45131913
-0.23016296 0.3083884 -0.36602914 0.30504295 0.20830405 0.13273801 0.109303035 0.15098414
0.5398413 -0.45581418 -0.47757965 0.43563837 0.00846643 0.0036396778 -0.28198367 -0.20313832
0.1909202 0.13567452 -0.13461867 -0.14414033 0.35139537 -0.35356602 0.22908716 -0.27599695
-0.03249481 -0.033443682 0.20973071 0.22111897 -0.058649473 -0.17951113 -0.049518213 -0.013723007
0.1929058 0.24055216 -0.10979974 -0.20729962 -0.25907472 -0.07846459 -0.30302197 -0.29339385

sequential/conv2d_1/Conv2D f4 [32, 2, 2, 16]
00000000: d1ee 68be d793 74be 386c 6ebe 45fb 263e
00000010: 01e4 073f 3531 863e 2a6d 973e 5206 253e
00000020: 7c97 db3d 92e7 e6be a1da 67be a0fe 303e
00000030: e6f3 fabe 8c36 d2be f0b9 ddbd 6731 45be
00000040: 9065 80bf 35a6 9fbe 49a3 1bbf 13a3 fabe
00000050: c04c e5be 08f1 2f3c b4de 013e 8d30 15bf
00000060: ac97 10bf d5a0 17bf 4153 adbf 0526 6e3f
00000070: 9a73 e3bf caff acbc a464 99bf 26fd 513d
00000080: ca19 d4bd 69d8 76bf a2e6 3dbe 9f62 763d
00000090: 4642 113e 659e 163f 18a6 743f 292e b4ba
000000a0: 0930 ee3e 6ff4 cb3e cb64 783d d670 9f3e
000000b0: dfc1 cebe 808b e7be 2bfd 973d cfec 833e
000000c0: cd20 4f3f 2c18 05be bb3e fabc d04e 9a3e
000000d0: d766 143f c1c7 e63e d088 923d 4584 023f
000000e0: 2dc1 e63e f1cb 6fbf f39f cd3d 6a3a c03e
000000f0: bc1c 923e 807c 87bf 3bc4 b0be 3222 c4bf
00000100: 1249 2d3e 0a04 823e a207 0fbf 8e4a 2abe
00000110: 6f41 82bf 4c91 b63e 8d81 863e a981 babf
00000120: 7572 63be f766 b5be e8a0 e4bf 19fa 5dbe
00000130: 0533 37bf 0bbd 7d3e d26a c3bf 1641 013e
00000140: a9b6 5ebe 8a49 013b 6dbd bcbf b03e 20bf
00000150: 819b 75bf 729e ac3e 4e38 973e 53af fbbf
00000160: c88c 833e 82f7 883e 46c7 90bf 7df2 023e
00000170: ec12 90bf 6347 b5bd af9f 92bf 4c7c bdbb
00000180: d83d 40bf c59d ad3d 5aaa 91bf f941 cbbf
00000190: e7c6 f1bf b9d1 183e c4a9 af3e 90c0 bcbf
000001a0: f7c1 7bbd 6a9e 213f 4602 3bbf 92d7 243e
000001b0: e9ac bfbf a28d 9ebe 80aa 59bf bb95 313e
000001c0: 5c85 16bf 5af9 52be 0370 8abf 9350 033e
000001d0: b9d3 4bbf bb5d c33e 8f8a 8d3e adc2 163f
000001e0: 0864 7e3f 3b86 953e 2704 50bf c5a4 133f
000001f0: 005c 0fbf 242a 063e e290 b8bf 6815 243f
00000200: a6de 11be 6728 1f3d f541 69bf 8110 8ebf
00000210: 60f3 b9be f987 eabe 664a b1be 4d27 4ebf
00000220: 18f5 9b3f bdfd 1b3d 8142 28be bb50 8abd
00000230: d561 53bf 5127 0bbe 3f42 2abf a577 54be
00000240: 3088 27be b4bc 933d bc1f 003e 7664 1abf
00000250: ad05 25bf 385e 913f cff5 b63e 49bc 29bf
00000260: cc6c 813f fda8 50be 08af d1bd 5721 603d
00000270: 3d40 2bbf 5273 4cbe ba8e 43be 001c 7ebd
00000280: 3d6b 593f 369a 4e3f ed33 0dbf bbe3 9abc
00000290: 69e7 54bd 3bc6 463f b6d6 5c3f ee64 b2be
000002a0: d852 323f 0f54 aa3d 477a f9b9 cf4f 333f
000002b0: 0212 5bbe 1b19 8cbc 7024 16bf 1afe b1be
000002c0: e2bd 493c 5d76 d43e eb79 68bf 2afd d5be
000002d0: da23 81bc 9e0e 6abe c1a0 9c3e 51cc 7bbe
000002e0: 8677 c03f f5a8 b6be 82cd d0be afbc 713f
000002f0: 516c 6dbf 9fa3 903e ff59 04bf 4edd 52be
00000300: be63 88bf 3bdc 9fbf 201b b5bd f502 ca3e
00000310: 4a92 383e 624b 2dbe 916b f7be 7d2f 563e
00000320: ac37 03bf ae35 3f3f 4e06 813e a9ad 83be
00000330: 365a 043d 7987 0cc0 f5a9 8d3e 027e 6e3d
00000340: b2f8 d2bf 4bf6 03c0 f6e5 da3e d87f f33e
00000350: 9c63 5d3f 63dd 0f3d 7c5c 2abf a196 e43e
00000360: 6a38 e9be 8f21 9a3e 62fd 67bd d794 883d
00000370: 6c3e 463e f248 f0bf b92d b73c d504 f8bd
00000380: 66ca 273f 4298 c53e e411 853e 8f6b 253f
00000390: 614e dc3e 3756 bfbe 0dad c4bf e5cd ce3e
000003a0: e97b b93d 0b32 43bf 6df1 79bf f32e 93bf
000003b0: e8c1 d13e d985 873e 33c8 41bf c9c5 7fbf
000003c0: 3be3 8b3f de9b 803e d310 1a3e b5c9 733e
000003d0: 0939 cd3e a8fd bdbe f2d6 02c0 e55f d1bd
000003e0: 6cef d7bd d894 d6bf 0305 3ebf 5f5f babf
000003f0: fc17 5b3e 020d f3be 1880 81bf c3f4 c4bf
-0.22747351 -0.23884521 -0.2328347 0.16306789 0.5308228 0.26209417 0.29575473 0.16115692
0.10722253 -0.4509855 -0.22641994 0.17284632 -0.49014205 -0.4105724 -0.108264804 -0.19257127
-1.0030994 -0.31181493 -0.6079603 -0.4895254 -0.44785118 0.010738619 0.12682611 -0.5827721
-0.5648143 -0.59229785 -1.3541032 0.93026763 -1.7769654 -0.021118063 -1.1983838 0.05126681
-0.103564814 -0.96423966 -0.1854501 0.060152646 0.14185438 0.5883544 0.9556594 -0.0013746667
0.46521023 0.39834926 0.060643 0.31140774 -0.40382287 -0.45223618 0.07421335 0.25766608
0.80909425 -0.12997502 -0.03054749 0.30138254 0.5796942 0.45074275 0.07155001 0.5098308
0.45069256 -0.93670565 0.100402735 0.37544566 0.28537548 -1.0584869 -0.34524712 -1.5322936
0.16922405 0.25393707 -0.5587102 -0.16630003 -1.0176219 0.35657728 0.26270714 -1.4570819
-0.2221163 -0.35430118 -1.7861605 -0.21677436 -0.71562225 0.24779145 -1.5266974 0.12622485
-0.21749367 0.001972767 -1.4745308 -0.62595654 -0.95940405 0.33714634 0.29535145 -1.966288
0.25693345 0.26751333 -1.1310813 0.12787814 -1.1255774 -0.088515066 -1.1454982 -0.0057826396
-0.75094366 0.08477358 -1.1380112 -1.5879508 -1.8888825 0.14923753 0.34309208 -1.4746265
-0.061464276 0.63132346 -0.73050344 0.16097859 -1.4974643 -0.30967432 -0.8502579 0.17342274
-0.5879724 -0.20602933 -1.0815433 0.12823705 -0.7961994 0.38157448 0.27644774 0.588908
0.99371386 0.29203972 -0.81256336 0.57673293 -0.55999756 0.13102013 -1.4419215 0.64095163
-0.1424509 0.03885689 -0.9111627 -1.1098787 -0.36318493 -0.45806864 -0.34627074 -0.8052872
1.2184172 0.03808378 -0.16431619 -0.06753679 -0.82571155 -0.13589217 -0.66507334 -0.20748766
-0.16360545 0.07213727 0.12512106 -0.6030954 -0.64461786 1.1356878 0.35734412 -0.66302925
1.0111327 -0.20376964 -0.10238463 0.054719295 -0.66894895 -0.19965866 -0.19097415 -0.06203842
0.8492926 0.8070406 -0.5515736 -0.018907418 -0.051978502 0.77646226 0.8626512 -0.34842628
0.6965766 0.08316814 -0.00047584085 0.70043653 -0.21393588 -0.017101815 -0.5864935 -0.34764177
0.012313338 0.41496554 -0.9081103 -0.4179471 -0.015764166 -0.22857139 0.30591395 -0.2458966
1.5036476 -0.3567578 -0.4078179 0.94428533 -0.927434 0.28249833 -0.51699823 -0.20592234
-1.0655439 -1.2489084 -0.08843064 0.3945538 0.18024555 -0.16923288 -0.48324254 0.20916553
-0.51256824 0.74691284 0.25200123 -0.2571843 0.032312594 -2.1957686 0.2766873 0.05822564
-1.6482146 -2.0619075 0.4275357 0.47558475 0.86480117 0.03512324 -0.6654737 0.4464617
-0.45550853 0.30103728 -0.05663813 0.06669014 0.1935975 -1.8772261 0.02236067 -0.12110297
0.6554321 0.38592726 0.25990212 0.64617246 0.43028548 -0.37370464 -1.5365311 0.4039146
0.09056837 -0.76248235 -0.9763401 -1.1498703 0.4096825 0.26469305 -0.75696105 -0.9991117
1.092872 0.25118917 0.1504548 0.23807414 0.40082577 -0.37107587 -2.0443692 -0.102233686
-0.10543713 -1.6764174 -0.742264 -1.4560355 0.21395868 -0.47470862 -1.0117216 -1.5387195

sequential/conv2d_2/Conv2D f4 [32, 2, 2, 32]
00000000: a48a 1fbb 0244 13bf f615 153e cdf0 fb3d
00000010: 308a 28c0 0024 cabf 8a54 39be da0e 8d3d
00000020: ce24 b43d 6949 d13e a420 5bbe 1ad8 a5bf
00000030: 59db 363f a000 12bd 8314 803d d471 c63d
00000040: 98bf 16bf d13c 12bd 1964 30bf 74c1 1d3f
00000050: 3e7a 55bf 6924 133f 1e35 0f3f 171b 143f
00000060: e454 babf bf24 e63d b55b 263e 343e 903f
00000070: 79d1 15be 30fc 353e 0778 f1bf 595c 1bbf
00000080: f115 dfbe b482 20bf 860e c53e 91b2 d03e
00000090: badd 92c0 8c5f d9bf d7c5 8b3e fb5c aa3e
000000a0: 32cf b7bd cefc a63e 618b 17be cd3b 92bf
000000b0: 8a20 4f3f 6ece 3d3e 81ab d63e 9a4d 723f
000000c0: 67dd 18bf fa1d bc3e 5329 20bf 1040 333f
000000d0: 313a acbf 1cf1 1d3f a333 1c3f b007 08bd
000000e0: 424f c0bf 2312 153f 2562 243e 3e7e c23e
000000f0: 2a34 a2be 2e52 a8be 29f5 5fbf 05fc 93bf
00000100: 50ad 8d3e c797 203e 14f7 3e3f 64e1 593f
00000110: f9a3 1dc0 71bc 3c3e bad1 64be 32cd a4be
00000120: 246a 633e 90d0 fbbb fc68 debe 7b26 17c0
00000130: 65c0 33bf dc04 06c0 8e01 e63e a992 35bf
00000140: a737 c7be ab1f 1ebe 6346 8dbf 171f bb3d
00000150: 2cef 28be b21a 42bf 683a f2bd 47c5 88bc
00000160: fdb4 74be 0fa5 abbd 6907 6dc0 9e26 b1bf
00000170: 0c30 9dbe a3a2 703f d8e5 60be e25e e33e
00000180: 4063 66be 22db 0f3e cb04 083f 2d26 863f
00000190: 1e7c 8cc0 d067 9a3e ebbe d73d 08ff 10bf
000001a0: 2082 ae3e 749d 93bb b08d 5cbf 2f1f 02bf
000001b0: 91fa a0be 3774 32c0 2011 da3e 0057 e9be
000001c0: 6ac6 efbd 730c d33e 9da0 a7bf e0f5 923e
000001d0: 97b4 d6bd c71e 093e d5ca a6bd 3484 9fbe
000001e0: 36fd 833d 116b b33d 17ef 26c0 092f 4fbd
000001f0: 7ea2 073f 70ce 0e3f 1f44 4bbd 621f f63e
00000200: 1c2e c23e 55d5 41bf 146a 1abf bf5c ba3c
00000210: f4f5 1fc0 5e86 88be 1182 01bf dbac 9bbf
00000220: 175d 5a3e bcd7 2c3f f072 06bf 68bd f9bd
00000230: ef7c 5b3f 4a37 673e 5c4c 70bf 5cc8 193f
00000240: be2a 9e3e d8b5 653e 7b73 353f dcf7 74bf
00000250: 3c8a 313f f216 c5be a3ce cfbe 4456 883d
00000260: baf1 86bf ee00 a5be b51a be3e b753 303f
00000270: 99fc 41be 2011 19c0 d287 26c0 9247 81bf
00000280: fa59 c93e 6043 6fbf b789 f8be 8505 dbbd
00000290: 0348 38c0 7c77 5bbd a647 f9be 480e 17c0
000002a0: ef54 73bf a75f ef3e b5a9 f8bd 9bf3 ecbd
000002b0: d661 24be d47d 163f b9f2 d4bf c741 4b3f
000002c0: da8a acbd 3546 a6be 81d6 e93e 517b 0bbf
000002d0: 7efc 0e3e 8513 ad3e 4fc7 64bf 001c 803e
000002e0: 5cc6 a3bf b07a 7ebe 8c44 153f abf0 30be
000002f0: 94ca babd 7eba 21c0 a3ec 8bbf 3cd7 2bbf
00000300: c454 87be 446a 8dbe ac1a 30be d775 ad3d
00000310: a5b3 14c0 abc2 2abf 2927 9f3e a21a 10bf
00000320: bab6 0abf fee4 82bf d715 bc3e df08 6bbf
00000330: d88e 0bbf 4579 a7bf 82df 38bd a4a9 03c0
00000340: 3859 7e3f 61eb 0abf 128a 93c0 d969 c63e
00000350: 94e7 50c0 dc08 b03e 22c9 51bf 8583 30bd
00000360: 0462 edbe 7b8e f3bf 8ebb 173f 5225 b9bf
00000370: 3c34 51bf 56ce 073f a392 b23d 3faa e7bf
00000380: b57b 3dbf caef e3bd 8c28 183e 74a6 e9be
00000390: 3543 d2bf 4032 9dbf cab0 bd3e 802a 7bbe
000003a0: e8e4 85be d873 70bf ec84 4e3f 365a e9bf
000003b0: d2d0 c7be 9ee3 d6bf ebc3 f33e 51fa 32c0
000003c0: 618f cb3d ba0a b1be 22a3 8dc0 b908 973e
000003d0: be23 65c0 6fbf 3bbd b6e2 36bf 8611 febe
000003e0: 1a74 7d3d c978 03c0 1df2 0bbf beab 95bf
000003f0: 9570 b8be 05ec ac3e fb90 df3d d8df 06c0
-0.002434411 -0.57525647 0.14559159 0.123017885 -2.6334343 -1.5792236 -0.18098655 0.06887598
0.087960824 0.4087632 -0.2139917 -1.2956574 0.7142845 -0.035645127 0.06253912 0.0968968
-0.588861 -0.03570253 -0.68902737 0.6162331 -0.8338965 0.5747743 0.55940425 0.57853836
-1.4557157 0.112374775 0.16245921 1.1268983 -0.14630689 0.17771983 -1.8864754 -0.60687786
-0.43571427 -0.6269944 0.38487643 0.40761235 -4.589566 -1.6982284 0.27299377 0.33274063
-0.08975066 0.3261475 -0.14799263 -1.14245 0.80909026 0.18535778 0.41927722 0.9464966
-0.59712833 0.3674162 -0.62563056 0.70019627 -1.3455259 0.6169603 0.6101629 -0.033210456
-1.5024188 0.582308 0.16053064 0.3798694 -0.31680423 -0.32875198 -0.8748346 -1.1561285
0.2767129 0.15682898 0.7459576 0.85109544 -2.463133 0.1843126 -0.2234563 -0.32187802
0.22208458 -0.0076847747 -0.43439472 -2.3617237 -0.70215446 -2.0940466 0.4492306 -0.7092691
-0.38909647 -0.15441768 -1.1037105 0.09136789 -0.16497487 -0.75821984 -0.11827546 -0.016695632
-0.23897167 -0.08381092 -3.7035773 -1.383991 -0.3070072 0.93998164 -0.21962678 0.44408327
-0.22498798 0.14048436 0.53132313 1.04804 -4.390151 0.30157328 0.105344616 -0.56639147
0.34083652 -0.004504854 -0.861537 -0.5082883 -0.31441167 -2.7883432 0.4259119 -0.45574188
-0.11707766 0.41220436 -1.309589 0.28703213 -0.104836635 0.13390647 -0.08144156 -0.3115555
0.064447805 0.08760656 -2.608343 -0.050581966 0.5298232 0.5578375 -0.049625512 0.48070818
0.37925804 -0.75716144 -0.6031811 0.022749303 -2.4993868 -0.26665014 -0.5058909 -1.2162126
0.21324573 0.67516685 -0.5251913 -0.121943295 0.8573751 0.22579685 -0.93866515 0.6007135
0.30891985 0.22432649 0.70879334 -0.95690703 0.69351554 -0.38494068 -0.4058734 0.06657079
-1.0542519 -0.32227272 0.3712975 0.6887774 -0.18944015 -2.3916702 -2.6020398 -1.0099967
0.3932646 -0.9346218 -0.48542568 -0.10694412 -2.8793952 -0.053580746 -0.48687476 -2.3602467
-0.95051473 0.46752664 -0.12141744 -0.115699016 -0.16052946 0.5878575 -1.6636573 0.79397243
-0.08424921 -0.3247544 0.45671466 -0.5448504 0.13963506 0.33803955 -0.8936662 0.25021362
-1.279491 -0.24851489 0.5830772 -0.17279308 -0.0912067 -2.5270076 -1.0931591 -0.67125297
-0.2643186 -0.27620137 -0.17197675 0.08469742 -2.3234646 -0.6670329 0.31084564 -0.5629064
-0.5418507 -1.0226133 0.36735412 -0.9181041 -0.5451484 -1.3083884 -0.04513503 -2.057229
0.99354887 -0.5426541 -4.6106043 0.3875263 -3.2641344 0.3438176 -0.8194753 -0.043094177
-0.46363842 -1.9027857 0.5927056 -1.4464514 -0.8172033 0.5304922 0.08719375 -1.809883
-0.74016887 -0.111297205 0.14859217 -0.45634806 -1.642676 -1.228096 0.37048942 -0.24527931
-0.26151204 -0.93926764 0.8067157 -1.8230655 -0.39026505 -1.6788213 0.4761041 -2.796528
0.09939457 -0.34578496 -4.4261637 0.29498842 -3.5803065 -0.045836862 -0.71439683 -0.49622744
0.0618783 -2.0542471 -0.5466631 -1.1693037 -0.36023393 0.3377382 0.10916325 -2.1074123

sequential/conv2d_3/Conv2D f4 [32, 2, 2, 32]
00000000: 46b8 5cbe d512 f43e 23b4 693e b7f5 4b3f
00000010: 0be6 343f 6957 cb3e f0f2 b0bf fd9d 0cbe
00000020: aff6 7a3f 95a9 61be fda7 9bbd f922 0abf
00000030: cc36 b5bf 1e59 fbbe 115d 39bd 63fb cf3e
00000040: 446a 463d 2ecc 8c3c 29a6 ba3e 0d8c 2a3e
00000050: f37c 903d 4977 b4be da28 cb3e b1f2 ffbf
00000060: 2c60 04bf 16af 8fbd 1c8c b73e d594 88bd
00000070: 924a d23d db89 163e 01c5 3f3e c2f7 e13c
00000080: 238a b0bd 38c3 043f 49b0 ae3e b9ef 8abe
00000090: 913e af3e 293c e23e 82fa a8bf 74ff 083d
000000a0: 5a2f 78be 19a5 96be db41 febc b57c ae3f
000000b0: ac3a febf 6e35 533e 10c4 823d 205b 4d3f
000000c0: 6037 e5bd 306f 293d a905 6bbe 9818 283e
000000d0: de17 aa3e 2177 e93c 6546 523e e39f c9bf
000000e0: 98f5 0ac0 e9eb 003f 9e97 b33e 4769 043e
000000f0: 86bc 733e 8644 05bf 2b46 b53e 5eae acbd
00000100: e278 abbf 143a 9fbf 8e01 85be 4faf 9abf
00000110: 3c27 2bc0 ffe9 b4bf 3751 953f 16bf fb3c
00000120: 4167 abbf 5569 44be f1d1 78c0 fa7d a03e
00000130: ec41 6b3d 5927 68bf 2908 09be 5811 06be
00000140: de6f 053f e86a e0be 27cb bc3e ca39 a1bd
00000150: acd8 c8bd 2b68 65c0 7cf1 7ebe 04d1 06c0
00000160: 8c71 67bf 6224 4abf 95ef 84bf 57da 1c3f
00000170: 0262 46c0 fbc0 05bf fe8e 07bf 322c 03c0
00000180: 5c20 91bf e76c 3abf 60ac ebbf feb7 c7bf
00000190: 92c4 49bf a243 9bbf 766e e03e d41b aabf
000001a0: dddc 05c0 0b75 0ebe feb5 b2c0 a3b4 d1be
000001b0: df52 87be 2949 23bf fb8d 91bd ae84 80bd
000001c0: 228e c4bf 1c6f 81c0 34bd cdbd 68c6 94be
000001d0: 767d f9bf fa56 bbbf 9e40 c5be 2009 64c0
000001e0: 76ec 91bf d4e0 06bf e533 13c0 182d 4ac0
000001f0: 0c39 d2bf 7d18 3bbd 71fe abbe 8b7c 4bbf
00000200: c8b2 31bf 7bb7 df3d 6e19 ccbe b800 d8be
00000210: 5554 0abf 182e debf ea4a 92bd 1c2a b5be
00000220: 0ca4 76bf d369 00be 7cd1 22bf 888f 0a3c
00000230: dc72 903e 086e 653e 749e a63d 74d8 8dbe
00000240: 1bce 0b3f fbcc 24c0 088d 453f 4d11 953e
00000250: b4fa 233f b363 d0be 96bd a9bf 8b99 06bf
00000260: dacb d1be 5dbe b4be 5bf6 dfbe 6672 a9be
00000270: eb97 b8be 6713 693e 3a24 f7be 0334 28bf
00000280: 75c9 24bf be71 b33e b1c3 e2bf c6e7 83be
00000290: 749c 24c0 50f5 1bc0 98e9 86bf e4e0 7ebf
000002a0: 7572 ebbf 4755 c83d 45a5 633e 1b24 4d3f
000002b0: 6b09 4f3f 6679 1a3f 355f b23d faec 36bf
000002c0: 6461 5cbf 0cf0 8ac0 8b2b 273e cdf4 cebc
000002d0: 2223 a1bf 07ce ebbe 3714 11c0 15a8 a6bd
000002e0: 5b70 b9bf eb6b a7bf 4f27 10bf cc81 20bf
000002f0: 2bb4 dc3e 1a1c dbbf 45fc 14bf 51de 89be
00000300: 0618 0ebf 1bfd aa3e 8b6e 3fbf d466 293f
00000310: 4171 d53e b843 3ebf abf8 253f 1eda 7dbd
00000320: 44bf 803a 1f01 353c 11a6 bfbb 7feb 45c0
00000330: 296f 8c3e cb6b b13d 8c96 23bc c0be dc3d
00000340: 4777 8bbf 1d40 19c0 4bf7 5fc0 fac6 97bf
00000350: 1e8d 6c3e 3650 fc3d f395 843e 4a09 793e
00000360: b42f da3e 8f8a b6be 3c6b 413f 3af8 acbd
00000370: 1957 203f baeb 2fbf f2ad 8abf 4cba 723c
00000380: 7367 68be 90ae fdbd 5168 e9bd 1f3e 2fbe
00000390: 0dce b8be 322c e03d 21dd e43c c5bb 983d
000003a0: 3d7a 0e3f 8e42 1dc0 936b 33bb 56b5 25c0
000003b0: d544 23bf a75c ecbc 87ca 723c 99cf 66bf
000003c0: ba5c babf 3144 69c0 b9fc 04c0 b925 01c0
000003d0: e406 b23e 9dc1 ba3d ed0b ffbf fbf5 95be
000003e0: a86a 613f 7325 9c3e 364a 453e 7cc2 96be
000003f0: fe47 5e3e f975 5abf 4bf0 02c0 08a9 97bd
-0.2155467 0.47670618 0.22822623 0.79671806 0.7066352 0.39715126 -1.3824139 -0.13732143
0.9803266 -0.22037347 -0.076004006 -0.53959614 -1.4157348 -0.4909143 -0.04525477 0.4062148
0.048441187 0.017187204 0.36454895 0.16654988 0.07055082 -0.35247257 0.39679605 -1.9995939
-0.51709247 -0.07015817 0.35849082 -0.066690125 0.102681294 0.14701025 0.18727495 0.02758396
-0.086200975 0.5186038 0.3411887 -0.2713602 0.34227422 0.44186524 -1.3201449 0.033446744
-0.24236813 -0.29422835 -0.031037262 1.3631808 -1.9861655 0.2062585 0.06385052 0.8021717
-0.111922026 0.041365802 -0.22951378 0.16415632 0.33221334 0.028499188 0.20534666 -1.5751919
-2.1712399 0.5035997 0.35076612 0.12930785 0.23802385 -0.52057683 0.35405096 -0.084316954
-1.3396266 -1.2439599 -0.2597775 -1.208475 -2.6742697 -1.413391 1.166541 0.030730765
-1.3390886 -0.19180806 -3.8878138 0.31346112 0.057435915 -0.9068504 -0.13382019 -0.13092554
0.5212382 -0.43831563 0.36873743 -0.078723505 -0.09806952 -3.584483 -0.24896806 -2.1065073
-0.90407634 -0.78961766 -1.0385615 0.6127066 -3.099732 -0.5224759 -0.52952564 -2.0495725
-1.1338 -0.7282242 -1.841198 -1.5603025 -0.7881557 -1.2130015 0.43834275 -1.3289742
-2.0916054 -0.13911836 -5.584716 -0.40958127 -0.26430413 -0.6378351 -0.07107159 -0.06275307
-1.5355875 -4.044813 -0.10045853 -0.29057622 -1.9491413 -1.4635918 -0.38525862 -3.563057
-1.1400287 -0.5268681 -2.3000424 -3.1590023 -1.6423659 -0.04567765 -0.3359256 -0.7948691
-0.69413424 0.10923668 -0.3986315 -0.42188048 -0.5403493 -1.7357817 -0.07143195 -0.3538369
-0.96344066 -0.12540369 -0.636009 0.008457072 0.2821263 0.22405255 0.08135691 -0.27704203
0.54611367 -2.575011 0.7716832 0.29114762 0.6405442 -0.40701064 -1.3260982 -0.5257804
-0.4097584 -0.35301486 -0.43742642 -0.33095092 -0.36053404 0.22761308 -0.48269826 -0.65704364
-0.643699 0.35047716 -1.771597 -0.25762767 -2.5720491 -2.4368477 -1.0540037 -0.99561906
-1.8394305 0.0978189 0.22231014 0.8013322 0.80873746 0.6034149 0.087095656 -0.7145535
-0.86086106 -4.3418026 0.16325204 -0.025263214 -1.2588847 -0.46055624 -2.2668588 -0.08137528
-1.4487413 -1.3079809 -0.5630998 -0.62698054 0.43106207 -1.7117951 -0.5819743 -0.26927426
-0.55505407 0.3339623 -0.7477805 0.6617253 0.41687968 -0.7432208 0.6483256 -0.06197559
0.0009822627 0.011047631 -0.005848654 -3.0924985 0.27428558 0.08663138 -0.009984624 0.1077857
-1.0895776 -2.3945382 -3.4994686 -1.1857598 0.23100707 0.123199865 0.25895652 0.2431995
0.4261452 -0.35652587 0.7555425 -0.08445783 0.626329 -0.68719065 -1.0834334 0.014814924
-0.22695713 -0.12386811 -0.1139685 -0.17113541 -0.36094704 0.109459296 0.027937474 0.07457689
0.5565527 -2.4571872 -0.0027377352 -2.5891929 -0.63776904 -0.028852774 0.014818794 -0.9016052
-1.4559548 -3.644787 -2.077925 -2.0179274 0.34770882 0.0911896 -1.9925514 -0.2928923
0.8805337 0.3049732 0.1926659 -0.29445255 0.2170715 -0.8533626 -2.0459163 -0.07405287
