Project/app/src/main/assets/converted_model_4layer.tflite (tflite, 46272 bytes, 10 tensors)

sequential/dense/BiasAdd/ReadVariableOp f4 [2]
0.42964324 -0.4296429
00000000: 33fa db3e 27fa dbbe

sequential/conv2d/BiasAdd/ReadVariableOp f4 [16]
-0.7593775 -1.0427762 -1.5325439 -0.4926973 -0.53692824 -0.4335471 -0.6600329 -0.99189925
-0.22501765 -0.2095566 -0.73036474 -0.9751485 -0.027855953 -0.21437597 -0.3322699 -0.007448491
00000000: 9066 42bf b179 85bf 662a c4bf d242 fcbe
00000010: 2174 09bf e3f9 ddbe ebf7 28bf 1ced 7dbf
00000020: 076b 66be 0196 56be 2ff9 3abf 55a3 79bf
00000030: 2b32 e4bc 6085 5bbe 481f aabe 7912 f4bb

sequential/conv2d_3/BiasAdd/ReadVariableOp f4 [32]
-2.7359657 -0.72038215 0.51386505 -3.8077002 -0.00066024036 0.15672678 -0.3405623 -1.9901518
-1.2849914 -4.024547 -1.8563968 -1.5096616 -6.6119123 -0.34970698 -0.7728889 0.24537858
0.03900615 0.23419173 0.73023224 -2.8991046 -2.5454273 -1.9239111 0.70898306 -5.1093173
2.478002 0.32421574 -4.5492587 -2.6102037 0.30457228 0.9990351 0.9056094 -5.983276
00000000: 101a 2fc0 f76a 38bf a98c 033f 5cb1 73c0
00000010: fb13 2dba fc7c 203e 2f5e aebe 4bbd febf
00000020: 997a a4bf 17c9 80c0 699e edbf 973c c1bf
00000030: c994 d3c0 cb0c b3be 0cdc 45bf 8644 7b3e
00000040: eac4 1f3d f5cf 6f3e 80f0 3a3f ee8a 39c0
00000050: 48e8 22c0 b842 f6bf ea7f 353f 877f a3c0
00000060: 9697 1e40 9bff a53e 8793 91c0 940d 27c0
00000070: e6f0 9b3e c4c0 7f3f 05d6 673f ff76 bfc0

sequential/conv2d_2/BiasAdd/ReadVariableOp f4 [32]
-1.105469 0.7589574 1.0828875 -0.6080535 1.0319738 0.52814615 -0.03571162 0.98996794
0.1111017 0.38892785 1.4865966 0.5620136 1.6605083 1.4451649 -1.8658391 -2.337031
-2.510971 -0.80214334 -2.834385 -1.3212204 -4.61358 -0.24465491 0.7910523 -0.8577901
-0.28699338 0.3422313 0.064417236 0.086929984 1.1013535 0.046071433 0.40166768 0.60389936
00000000: 0280 8dbf 084b 423f 0f9c 8a3f 65a9 1bbf
00000010: b817 843f 9634 073f 5946 12bd 8a6e 7d3f
00000020: 4a89 e33d 8d21 c73e cc48 be3f 20e0 0f3f
00000030: 898b d43f 2afb b83f d1d3 eebf ea91 15c0
00000040: c0b3 20c0 4459 4dbf 9066 35c0 c01d a9bf
00000050: 73a2 93c0 d186 7abe 6782 4a3f 2298 5bbf
00000060: ccf0 92be f138 af3e 2fed 833d 5908 b23d
00000070: 27f9 8c3f 66b5 3c3d 63a7 cd3e 2699 1a3f

sequential/conv2d_1/BiasAdd/ReadVariableOp f4 [32]
-0.3053946 -0.56593525 -3.115114 -1.0474813 0.21745026 0.8489709 0.73350835 -2.8603954
-0.23393345 -0.09303952 -0.049605537 1.007497 -1.4366574 -0.2883248 -0.13748808 -0.121594444
-0.40566033 -0.25409305 -6.5211616 0.4584655 -2.4830215 -0.89248574 0.013090742 -0.011658556
-0.21223395 -2.7523823 -2.596077 -0.017792102 -0.020691294 -2.4810483 -0.10011975 -2.221666
00000000: ae5c 9cbe 22e1 10bf 075e 47c0 de13 86bf
00000010: 48ab 5e3e 2856 593f 34c7 3b3f b810 37c0
00000020: 408c 6fbe 818b bebd 2d2f 4bbd a9f5 803f
00000030: 64e4 b7bf 4f9f 93be adc9 0cbe 8206 f9bd
00000040: b6b2 cfbe 7c18 82be 5bad d0c0 fdbb ea3e
00000050: d3e9 1ec0 f279 64bf 8d7a 563c 8703 3fbc
00000060: db53 59be 0827 30c0 2026 26c0 bec0 91bc
00000070: ca80 a9bc 7fc9 1ec0 950b cdbd c72f 0ec0

sequential/dense/MatMul f4 [2, 32]
-0.06315786 0.067848265 -0.026346916 0.28564173 -0.2811244 -0.07722768 0.0008692721 0.083760746
0.21227477 -0.15627885 0.05056514 -0.14850323 -0.22538242 -0.2949242 0.002139316 -0.20012979
0.09750142 0.09868393 -0.1376912 0.111720726 -0.12230248 0.10511186 0.19372281 0.06279186
0.12249554 -0.24407595 -0.14107063 -0.25909486 -0.24784158 -0.1921115 0.13761057 0.11357104
-0.094105855 0.159153 0.106882356 0.21430364 -0.1871126 -0.015740706 0.06490677 0.025118567
0.10458618 -0.19009197 0.01733054 -0.07745602 -0.3252832 -0.22491498 0.055069428 -0.13079806
0.15412007 0.02250898 -0.16242811 0.022803795 -0.21388863 0.05426886 0.33915162 -0.023959102
0.010964795 -0.15637285 -0.17231286 -0.35464123 -0.1542094 -0.13305864 -0.016188744 0.059116956
00000000: e858 81bd 08f4 8a3d 7dd5 d7bc a23f 923e
00000010: 8aef 8fbe 8c29 9ebd dddf 633a c18a ab3d
00000020: 8f5e 593e 9007 20be 641d 4f3d 3b11 18be
00000030: a6ca 66be 4e00 97be c433 0c3b d3ee 4cbe
00000040: d3ae c73d cd1a ca3d ecfe 0cbe d6cd e43d
00000050: b979 fabd e344 d73d 465f 463e 0599 803d
00000060: f1de fa3d 0cef 79be d274 10be 15a8 84be
00000070: 2fca 7dbe e1b8 44be c9e9 0c3e ef97 e83d
00000080: 92ba c0bd 01f9 223e 23e5 da3d 6a72 5b3e
00000090: 729a 3fbe a7f2 80bc d7ed 843d 74c5 cd3c
000000a0: 4731 d63d 78a7 42be c7f8 8d3c 43a1 9ebd
000000b0: 858b a6be 1d50 66be 7b90 613d edef 05be
000000c0: a7d1 1d3e c164 b83c 8e53 26be 06cf ba3c
000000d0: 9f05 5bbe 0649 5e3d 48a5 ad3e e145 c4bc
000000e0: afa5 333c 3420 20be c872 30be 8993 b5be
000000f0: 12e9 1dbe 8640 08be 429e 84bc 9f24 723d

sequential/conv2d/Conv2D f4 [16, 2, 2, 1]
-0.14371373 0.18391088 -0.30861777 0.37934244 -0.15114987 -0.055833083 -0.17697676 -0.14430791
0.019060628 0.13155378 -0.17950979 -0.108562544 0.20133139 0.19542383 -0.1374596 -0.14961042
0.06817508 -0.064784266 -0.23138468 -0.24221295 0.102397345 0.06571691 0.13367712 0.14717126
-0.22332598 0.2658741 -0.20063978 0.28988394 0.403366 -0.36225402 -0.38336453 0.48094705
-0.092136264 -0.0519447 0.09302844 0.14404722 -0.26621544 0.25539255 0.3305346 -0.38327727
0.13176358 -0.00051785406 0.13609245 0.17886561 0.31900853 -0.25299838 0.32748845 -0.2302482
-0.1687461 -0.039682254 -0.01523773 -0.0352708 0.12346327 0.052714016 0.013863057 0.07901947
-0.17346893 -0.055585355 0.021977153 0.0032877566 0.23912644 -0.01594434 0.02160745 0.013796441
00000000: b129 13be 2253 3c3e 2603 9ebe 2c39 c23e
00000010: 08c7 1abe 3bb1 64bd 6539 35be 74c5 13be
00000020: 0925 9c3c 09b6 063e 6ad1 37be 0a56 debd
00000030: d129 4e3e 2f1d 483e 36c2 0cbe 7933 19be
00000040: 609f 8b3d 9dad 84bd 1bf0 6cbe ac06 78be
00000050: b3b5 d13d 9696 863d a8e2 083e 10b4 163e
00000060: 91af 64be a620 883e 8474 4dbe ab6b 943e
00000070: fd85 ce3e 5c79 b9be 5b48 c4be b13e f63e
00000080: f0b1 bcbd f7c3 54bd b285 be3d 1d81 133e
00000090: 644d 88be d0c2 823e d53b a93e eb3c c4be
000000a0: 08ed 063e 99c0 07ba d25b 0b3e 8c28 373e
000000b0: 1655 a33e 0189 81be 91ac a73e 2fc6 6bbe
000000c0: c7cb 2cbe dc89 22bd aca7 79bc 1d78 10bd
000000d0: 50da fc3d a7ea 573d e021 633c f6d4 a13d
000000e0: d7a1 31be 78ad 63bd 6e09 b43c 6777 573b
000000f0: 90dd 743e b49d 82bc 1b02 b13c 780a 623c

sequential/conv2d_1/Conv2D f4 [32, 2, 2, 16]
0.45812044 -2.8043113 -0.9882007 -0.33659142 -2.7769518 -0.0026085265 0.29084826 0.32007617
-0.048377946 -0.32572338 0.51697594 -0.3613969 -1.9408817 -0.13836883 -0.71653473 0.013281022
0.004784214 -2.4595118 -0.5430318 -0.051155113 -1.8900667 0.4500177 0.0043961946 -0.1817453
0.47607434 -0.08419369 0.18378408 -0.16635145 -1.8977859 0.42232415 -0.361535 0.08227979
-0.26880306 0.26392153 -0.25110623 -0.2832043 0.37062213 -0.4252109 0.10482503 -0.4599268
1.0547299 -0.04241478 0.037288737 0.29117516 0.9613073 -0.42315203 1.2163929 -0.61712277
0.14722769 0.60771364 -0.31575227 0.07448661 0.18854867 -0.8294307 -0.38019472 -0.24269384
0.33462876 -0.37236765 -0.071421675 -0.6226569 1.6073306 -0.25772795 1.368767 0.025795743
-0.46189904 0.03495995 -1.5298463 -0.20399919 0.32406002 0.13217705 -0.62036496 0.09561216
0.30141965 0.5233061 0.40462145 0.59352434 0.28488 -0.28317797 0.08774452 0.11235769
-0.008025609 0.09190979 -0.12306505 0.02246907 0.5711535 -0.8079817 -0.32958332 0.33984622
0.07771899 0.055032752 -0.6659922 -0.5044096 -0.10188986 -0.24682894 -0.053232323 -0.8732747
-0.5770013 -2.297192 -1.246192 0.55575866 -1.6967744 0.5802627 0.7178584 -0.087499864
-0.7620182 -0.20009838 0.851342 0.26558107 -3.7832801 0.52811265 -3.7071452 0.56803393
-1.3277549 -0.5111026 -1.4741851 -0.46123448 0.086127676 -0.0005315271 -1.4789071 -0.71798927
-0.01728057 -0.65030414 0.36493957 -0.0373901 0.6860129 0.18755244 -0.49997044 0.10555449
-0.20063785 0.14203164 0.7485423 -0.48557037 0.43946975 0.12403224 -0.5052759 -0.18591112
0.029127087 -0.04669633 0.080943696 0.044877958 0.055578105 -1.3409823 0.015765583 -1.3826597
0.57700884 0.002263312 0.004383599 -0.6891502 0.25478432 0.31476927 0.045668337 -0.29685146
-0.03434145 -0.23253462 0.40768164 0.27212793 -0.26810163 -1.443863 0.051834144 -1.1732929
0.3851265 0.20633948 0.32617027 0.3663904 0.15133001 -0.23558079 0.47022223 0.24215296
-2.1585374 -0.6842502 -0.37760514 0.22811435 -0.688305 0.43438405 -1.9481539 1.0164951
-0.1787506 0.28448027 -0.094962105 0.3823025 0.4027867 -0.15635242 0.36643243 -0.43317378
-2.7843525 0.38140652 -0.6376415 0.03159582 -0.6312857 0.5980574 -2.0974855 0.24943075
-0.04438093 0.009945987 -0.37879956 -0.42111793 -0.0021569054 -1.1468028 0.27933744 0.00953642
-0.38366234 0.084588714 -1.2061996 0.19606365 -0.076144375 -0.91070276 0.022552155 0.07717945
0.60554117 -0.0682983 -0.86329424 -0.36852726 -0.2925534 -0.14019091 0.39479953 0.114288025
0.15868804 -0.23256792 -0.69126946 0.2562762 0.19294088 -0.48703158 0.22371344 -0.5875875
0.8545632 0.08674308 -0.09819166 0.023732362 -0.24801064 -0.06812056 0.5212181 -0.46937904
0.224122 0.6261439 0.20784223 0.49245796 -0.0031840946 -0.15975721 0.28437844 -0.29334924
0.42875102 -1.2821006 -0.37198886 0.051588085 -0.5282153 0.66545224 0.8442286 0.255089
0.52366954 0.23799087 0.40670037 -0.05572336 -1.0832187 0.43304902 -0.4467215 0.4187903
00000000: c38e ea3e d679 33c0 b9fa 7cbf b655 acbe
00000010: 94b9 31c0 d0f3 2abb 10ea 943e 06e1 a33e
00000020: f427 46bd 37c5 a6be 8958 043f 0409 b9be
00000030: d06e f8bf 8fb0 0dbe d26e 37bf a598 593c
00000040: e5c4 9c3b a468 1dc0 2204 0bbf 0688 51bd
00000050: b5ed f1bf b868 e63e f40d 903b 711b 3abe
00000060: 04c0 f33e be6d acbd e531 3c3e 0958 2abe
00000070: a6ea f2bf df3a d83e 1e1b b9be 4e82 a83d
00000080: 8ea0 89be b920 873e ff90 80be 2700 91be
00000090: 2fc2 bd3e 3eb5 d9be 81ae d63d 877b ebbe
000000a0: 6401 873f 1fbb 2dbd 13bc 183d e914 953e
000000b0: 3c18 763f 62a7 d8be c3b2 9b3f c2fb 1dbf
000000c0: dbc2 163e 1f93 1b3f 48aa a1be 708c 983d
000000d0: e712 413e 9255 54bf e2a8 c2be bc84 78be
000000e0: 7654 ab3e f9a6 bebe 8745 92bd 7166 1fbf
000000f0: 02bd cd3f ebf4 83be c233 af3f 9851 d33c
00000100: 087e ecbe 2a32 0f3d 01d2 c3bf 2ae5 50be
00000110: 32eb a53e 6c59 073e 3dd0 1ebf 4fd0 c33d
00000120: ad53 9a3e 63f7 053f 8b2a cf3e 36f1 173f
00000130: cbdb 913e b4fc 90be 66b3 b33d ca1b e63d
00000140: d87d 03bc 333b bc3d 8709 fcbd 0e11 b83c
00000150: 1e37 123f e4d7 4ebf 25bf a8be 5300 ae3e
00000160: 222b 9f3d 066a 613d 777e 2abf fd20 01bf
00000170: a2ab d0bd bac0 7cbe 230a 5abd ee8e 5fbf
00000180: 5bb6 13bf 3205 13c0 3883 9fbf 3346 0e3f
00000190: e72f d9bf 198c 143f 91c5 373f 2133 b3bd
000001a0: a013 43bf 97e6 4cbe 8df1 593f 3efa 873e
000001b0: 4321 72c0 6432 073f de41 6dc0 ac6a 113f
000001c0: dff3 a9bf 9fd7 02bf 19b2 bcbf ed26 ecbe
000001d0: b563 b03d 2e56 0bba d44c bdbf 25ce 37bf
000001e0: fb8f 8dbc 557a 26bf 5cd9 ba3e 5d26 19bd
000001f0: 8b9e 2f3f bf0d 403e 20fc ffbe f42c d83d
00000200: 0274 4dbe be70 113e 78a0 3f3f ae9c f8be
00000210: 2e02 e13e 9d04 fe3d c359 01bf 7c5f 3ebe
00000220: ee9b ee3c a744 3fbd cfc5 a53d f3d1 373d
00000230: dea5 633d 4fa5 abbf d326 813c fefa b0bf
00000240: dab6 133f 1354 143b 4ba4 8f3b 266c 30bf
00000250: 1773 823e 7029 a13e b90e 3b3d eafc 97be
00000260: 9fa9 0cbd 8e1d 6ebe a6bb d03e 5a54 8b3e
00000270: 9e44 89be 81d0 b8bf 0a50 543d 762e 96bf
00000280: 4d2f c53e a84a 533e caff a63e 8697 bb3e
00000290: 41f6 1a3e 173c 71be f8c0 f03e f2f6 773e
000002a0: 7a25 0ac0 052b 2fbf 7655 c1be cf96 693e
000002b0: c234 30bf 9667 de3e 1b5d f9bf 831c 823f
000002c0: 660a 37be 66a7 913e 7e7b c2bd 27bd c33e
000002d0: 0f3a ce3e d91a 20be 089d bb3e f4c8 ddbe
000002e0: d532 32c0 b747 c33e 793c 23bf 9e6a 013d
000002f0: f19b 21bf 4a1a 193f 343d 06c0 c66a 7f3e
00000300: c7c8 35bd 7ef4 223c 04f2 c1be c59c d7be
00000310: de5a 0dbb 6fca 92bf 5105 8f3e a53e 1c3c
00000320: 646f c4be d93c ad3d c064 9abf e9c4 483e
00000330: 95f1 9bbd d123 69bf 4cbf b83c 4210 9e3d
00000340: bf04 1b3f fbdf 8bbd da00 5dbf 9baf bcbe
00000350: 8fc9 95be 358e 0fbe 2a23 ca3e d70f ea3d
00000360: 1e7f 223e 4926 6ebe 09f7 30bf a236 833e
00000370: 4b92 453e 345c f9be 2315 653e 226c 16bf
00000380: a7c4 5a3f 5ba6 b13d b618 c9bd 5f6a c23c
00000390: 80f6 7dbe cb82 8bbd 8d6e 053f 7352 f0be
000003a0: 3d80 653e f74a 203f 98d4 543e 7323 fc3e
000003b0: 3eac 50bb 6597 23be 0d9a 913e df31 96be
000003c0: 4185 db3e df1b a4bf 5375 bebe 074e 533d
000003d0: 1e39 07bf 145b 2a3f 5e1f 583f 079b 823e
000003e0: 350f 063f e1b3 733e 083b d03e 2e3e 64bd
000003f0: e9a6 8abf 9ab8 dd3e aeb8 e4be af6b d63e

sequential/conv2d_2/Conv2D f4 [32, 2, 2, 32]
-0.43976992 -1.3610549 0.44863424 -0.22833787 0.26874802 -0.545841 1.1065116 -0.7663863
0.11489765 -0.47046143 -1.1998476 -1.3660067 -0.6907076 -0.22655341 0.3608733 -0.19086213
0.18588646 0.8276734 0.061024297 0.13370885 0.08190264 0.22386628 0.6783376 0.61847097
0.056957107 -1.6364082 -0.41917145 -2.039583 -3.075924 0.13680723 0.8821478 0.8041317
-0.53799427 -0.3878529 0.25154603 -0.09786641 -0.7852221 -0.55761856 0.34663987 -0.6480119
0.05862526 -1.1588682 -0.41021726 -0.19722031 -0.7496077 -1.0277005 0.79468954 -0.63202393
-0.054222565 -0.94542223 -0.44312558 -1.8259197 0.6530204 0.26675475 0.14266889 -0.10912191
-1.4855932 -2.37565 -0.19424067 -0.59906614 -3.8698823 -0.23376502 0.15481645 -0.19731963
-0.15094271 0.87343353 -0.35975516 0.045997474 0.92464495 -0.59334147 -1.2660596 -1.617509
-0.6395548 -0.16920011 0.17376146 -0.9552635 0.07108226 0.40659583 -0.8878206 0.3038406
0.13607453 0.0016426453 -0.41338047 0.26501665 -0.39696896 1.0310216 1.6007737 -0.47590935
-2.3351154 -1.2484024 -0.8362976 0.32575154 -0.18926078 -0.6625147 -0.21652262 0.69453907
0.8076758 0.12614894 -0.3128358 -0.44394088 0.1553078 -0.0062928475 -0.39334926 -1.3704002
-1.1697186 0.2278644 -0.9393618 0.47816095 0.054934543 -0.9949171 -0.24184012 -0.49081898
0.8821761 0.15773895 0.15810062 -0.0013578869 -0.764589 0.01054559 0.405768 -1.1143167
-2.6855357 -1.6826961 -0.6596386 -0.41086397 0.24411435 -0.70822984 0.0886339 -0.18477993
-0.38222837 1.0591153 -1.2448493 -0.2888081 -0.031386327 -0.2811087 -0.6878563 0.4114454
-0.99413574 0.795091 -0.6847784 -1.4732943 -0.09254847 1.2727165 -1.3669534 -0.3192617
-0.11385883 0.89201677 -0.23380043 0.13301253 -0.6896933 -0.95206505 -0.83812237 0.3958975
0.5351365 0.032103214 0.5268049 -1.4583604 -0.6387936 -0.9385551 0.033667747 0.38396415
-0.96328664 -0.9249901 -1.0187321 -0.22269583 -0.08431903 -0.24417192 -0.018781982 1.0136086
-1.1320044 0.05794363 -0.14840955 -0.5454984 -0.4019131 0.14017968 -1.082802 -0.1794584
-0.24226275 0.23346135 -0.3683459 -0.36682582 -1.2688686 -1.3176813 -1.4762092 0.30798632
0.3045878 -0.17861387 -0.07078487 -3.0772796 -0.30968952 -0.3181401 0.0544707 0.14729086
0.40021706 0.46348166 0.48131526 -1.7324584 0.24912526 -3.8879097 0.6002852 0.40520537
0.15516491 -2.6704192 -2.1992192 -0.59658307 0.28678042 -0.16505407 -0.81672585 -1.5599896
0.12955542 0.95622855 -1.3469913 0.33634895 0.07824575 -0.8182086 -0.02588187 0.051412534
0.5167786 -0.9595055 -1.0541207 -0.30054408 0.15821649 -0.4940448 -1.3432302 0.25859728
-0.685048 -2.1034603 -0.15197979 -1.6394924 0.3903247 -3.0220408 -0.13672072 0.4833888
-1.1777171 -2.5856829 -1.8117907 -0.2688105 -0.045481384 0.010606874 -1.0052681 0.8855774
-0.064264126 0.115847036 -1.3423781 0.22212556 -0.3810273 -0.67643356 -0.6103339 0.42513362
0.52707994 -0.4296979 -1.3317001 -0.2661368 -0.026533185 -0.5635297 0.46323696 0.60660666
00000000: 8629 e1be 0c37 aebf 63b3 e53e 67d1 69be
00000010: 5799 893e 3cbc 0bbf 2ca2 8d3f e431 44bf
00000020: 764f eb3d 52e0 f0be 9b94 99bf 4fd9 aebf
00000030: 37d2 30bf 9efd 67be 63c4 b83e 5d71 43be
00000040: 0559 3e3e 67e2 533f 9df4 793d f9ea 083e
00000050: 92bc a73d 343d 653e 88a7 2d3f 1d54 1e3f
00000060: db4b 693d d375 d1bf a49d d6be 8788 02c0
00000070: f0db 44c0 3217 0c3e 70d4 613f 93db 4d3f
00000080: feb9 09bf a894 c6be a4ca 803e 2f6e c8bd
00000090: 5104 49bf 17c0 0ebf c87a b13e 1ce4 25bf
000000a0: 0a21 703d cb55 94bf ff07 d2be 1ff4 49be
000000b0: 4ae6 3fbf b18b 83bf c670 4b3f 52cc 21bf
000000c0: 7b18 5ebd 3107 72bf 5be1 e2be bdb7 e9bf
000000d0: 582c 273f 1494 883e cb17 123e 4f7b dfbd
000000e0: eb27 bebf a60a 18c0 07e7 46be 665c 19bf
000000f0: 27ac 77c0 1960 6fbe 3488 1e3e 280e 4abe
00000100: ba90 1abe 5799 5f3f d431 b8be d967 3c3d
00000110: 88b5 6c3f 3ae5 17bf 3e0e a2bf 890a cfbf
00000120: ddb9 23bf cb42 2dbe 86ee 313e 268c 74bf
00000130: 9393 913d 542d d03e 3648 63bf ff90 9b3e
00000140: 1f57 0b3e 084e d73a 9ba6 d3be 43b0 873e
00000150: 843f cbbe 84f8 833f 27e6 cc3f 64aa f3be
00000160: 8872 15c0 a6cb 9fbf 9917 56bf e8c8 a63e
00000170: 94cd 41be 909a 29bf 1bb8 5dbe 50cd 313f
00000180: d7c3 4e3f 302d 013e 042c a0be 384c e3be
00000190: 0209 1f3e 3b34 cebb 1365 c9be 4669 afbf
000001a0: 57b9 95bf 4955 693e 047a 70bf 83d1 f43e
000001b0: 0b03 613d e3b2 7ebf f0a4 77be a04c fbbe
000001c0: 4bd6 613f 5286 213e 21e5 213e 20fb b1ba
000001d0: 1bbc 43bf 69c7 2c3c d3c0 cf3e eea1 8ebf
000001e0: d1df 2bc0 9662 d7bf 13de 28bf c35c d2be
000001f0: 1df9 793e 8d4e 35bf b185 b53d f336 3dbe
00000200: 70b3 c3be 1791 873f 3957 9fbf a8de 93be
00000210: f38e 00bd 7bed 8fbe 5a17 30bf f9a8 d23e
00000220: ae7f 7ebf 158b 4b3f a34d 2fbf e894 bcbf
00000230: 0d8a bdbd 60e8 a23f 54f8 aebf 4576 a3be
00000240: d12e e9bd 365b 643f 6169 6fbe 7034 083e
00000250: bd8f 30bf 89ba 73bf 308f 56bf 14b3 ca3e
00000260: b5fe 083f a97e 033d b0dc 063f 8eab babf
00000270: fa87 23bf 2645 70bf 31e7 093d f396 c43e
00000280: f499 76bf 27cc 6cbf d065 82bf 600a 64be
00000290: 75af acbd 3408 7abe acdc 99bc edbd 813f
000002a0: 85e5 90bf 4d56 6d3d acf8 17be c8a5 0bbf
000002b0: 8ec7 cdbe 438b 0f3e 4299 8abf f1c3 37be
000002c0: ba13 78be 7e10 6f3e d597 bcbe 98d0 bbbe
000002d0: 496a a2bf c8a9 a8bf 6cf4 bcbf 62b0 9d3e
000002e0: eff2 9b3e 8ee6 36be a8f7 90bd 26f2 44c0
000002f0: a08f 9ebe 42e3 a2be ab1c 5f3d 6ad3 163e
00000300: 40e9 cc3e 784d ed3e f46e f63e 32c1 ddbf
00000310: b11a 7f3e 83d3 78c0 4aac 193f 1477 cf3e
00000320: 8de3 1e3e 26e8 2ac0 02c0 0cc0 abb9 18bf
00000330: e2d4 923e ef03 29be f214 51bf bdad c7bf
00000340: 2daa 043e 65cb 743f 366a acbf ee35 ac3e
00000350: 4f3f a03d 1e76 51bf 3706 d4bc f395 523d
00000360: 9a4b 043f 27a2 75bf 6ded 86bf eae0 99be
00000370: 8103 223e 71f3 fcbe f8ee abbf dd66 843e
00000380: 4e5f 2fbf 189f 06c0 97a0 1bbe e3da d1bf
00000390: a4d8 c73e 1e69 41c0 8400 0cbe bd7e f73e
000003a0: 6fbf 96bf d47b 25c0 c2e8 e7bf 88a1 89be
000003b0: b04a 3abd 74c8 2d3c a0ac 80bf 33b5 623f
000003c0: e99c 83bd 3641 ed3d 0cd3 abbf e274 633e
000003d0: 0316 c3be c02a 2dbf d83e 1cbf 1dab d93e
000003e0: b6ee 063f 5d01 dcbe 2675 aabf 1543 88be
000003f0: 1f5c d9bc 7b43 10bf 652d ed3e 934a 1b3f

sequential/conv2d_3/Conv2D f4 [32, 2, 2, 32]
-0.56819236 -0.02963863 0.8348684 -0.3549526 0.6804063 -0.6625578 -0.90509087 0.27982292
0.06481423 0.032358333 -0.6878145 -0.04542473 0.12352718 -0.056338802 -0.18441068 -0.1858087
0.063375 -2.4481716 -2.341506 -0.2747446 -0.12324679 -0.10038511 -0.29880685 -0.33015284
0.5535637 0.14758387 0.9157877 -0.9493002 -2.7943668 0.16913494 -1.8509988 0.47899196
-1.1582533 0.07194226 0.52720094 0.010686205 0.16729929 -0.35118458 0.22564323 -0.7359846
0.21897718 0.015573596 -0.5240768 0.17917144 -1.0761136 0.7628646 0.1040485 -0.18288513
0.054048833 -1.1361924 -0.9666167 -0.29600158 0.041142 -0.080921955 0.30813333 -0.5040008
0.13168086 0.32736894 -0.014704951 -1.7313299 -4.6867104 0.40749043 -0.5757791 0.015153916
0.30715004 -0.36842299 0.72655374 1.0260874 0.5106624 0.2822153 -0.50472635 0.95243704
-1.2975962 -0.5653114 -0.13955216 0.73499817 0.2629242 -1.564303 0.16165829 -0.28369743
-0.122176275 0.38198695 0.108885154 0.15229137 0.09103767 -0.34149566 0.9808012 -1.7988882
-0.45779288 -0.6320749 -1.013577 -0.3293035 -1.1802756 -0.6878824 -0.13456465 -1.1661105
-0.14188977 -0.26228583 -0.23894058 0.24538875 0.077499464 -0.5757945 0.35446742 -0.13764653
-0.7598785 -0.4403814 0.3732945 -0.043104637 -0.15492539 -1.0582457 0.35333058 -0.23851109
-0.09688662 -0.28300443 0.40748715 -0.17324874 -0.024193324 -0.40775016 1.0736147 -1.3840421
-0.4726416 -0.26102033 -1.0388414 -0.29957792 -5.96488 -0.031718887 0.28926644 -1.4687815
0.1142663 0.23060474 -0.26643732 -1.4746283 1.7109605 -0.7813505 -0.091854386 -1.0196007
0.09651983 -0.040307563 0.23760667 -0.02071912 -0.5621725 0.06295572 -0.8538846 -0.038546473
-0.7864513 0.022709083 -0.46983296 -0.32108632 0.6571776 -1.2913733 0.32970366 -0.49639517
-0.798774 -0.20848915 -0.97374177 -0.4630542 -0.49064916 -0.282135 -0.41211265 -0.39562482
0.04549129 -3.759999 -0.15020391 -1.2440355 -2.4646003 -1.3438578 0.27228835 -1.4867961
0.09044606 -0.03458407 0.08735695 0.26414114 -1.4752195 -0.48048845 -0.4429293 0.038755964
-0.5284877 -0.1140255 -0.23638198 -1.8450323 0.013082959 -3.392336 0.39847517 -0.54349697
-2.7523522 -0.49233866 -0.49642828 -0.11436124 0.95951784 -0.59848195 -0.79533935 -0.021660987
1.2045616 0.07387113 -0.7059964 -0.008356769 -1.1956793 0.3999526 -0.2972218 -1.3559031
-0.2118515 -0.20202544 -0.25104865 -0.40901816 0.05972282 -0.031493813 -0.15976469 0.1728762
-0.42420152 -0.57844466 -0.01329468 -0.09059336 -0.91620535 -0.019559748 0.65997946 -0.86549944
0.14339599 1.1316844 -0.1518494 -0.20194317 -5.437142 0.39686874 0.817423 0.22783093
0.04018136 0.45844337 -1.2347481 0.8073849 -0.37330902 -0.14112557 -0.00042701926 -0.9994616
0.101300314 -0.34368056 -0.3899097 -0.6642217 -0.5023373 0.69742584 -0.00037177172 -0.15323009
0.07570912 -0.67194957 -0.02507129 -0.14616175 -0.67425877 -0.09399211 -0.602347 -0.11253172
0.27624497 -0.84416384 0.020120816 -0.13754252 -0.12906411 -0.43861148 0.05182694 0.18934593
00000000: 0e75 11bf b6cc f2bc efb9 553f 59bc b5be
00000010: 1b2f 2e3f 639d 29bf 09b4 67bf f344 8f3e
00000020: 53bd 843d 2c8a 043d 9c14 30bf 480f 3abd
00000030: d1fb fc3d 84c3 66bd 27d6 3cbe a344 3ebe
00000040: c1ca 813d d8ae 1cc0 3cdb 15c0 53ab 8cbe
00000050: d068 fcbd b596 cdbd 36fd 98be cb09 a9be
00000060: 5ab6 0d3f 3a20 173e 1071 6a3f 5705 73bf
00000070: e8d6 32c0 b631 2d3e 87ed ecbf 6f3e f53e
00000080: a541 94bf 7756 933d a4f6 063f 3115 2f3c
00000090: 8150 2b3e 77ce b3be 050f 673e 7d69 3cbf
000000a0: 8e3b 603e 6528 7f3c e629 06bf b878 373e
000000b0: 17be 89bf 184b 433f 6117 d53d 3d46 3bbe
000000c0: 4f62 5d3d c16e 91bf 3174 77bf 858d 97be
000000d0: 8484 283d 69ba a5bd a7c3 9d3e 3206 01bf
000000e0: 59d7 063e e79c a73e 09ed 70bc 389c ddbf
000000f0: 88f9 95c0 96a2 d03e 4266 13bf 2148 783c
00000100: c542 9d3e f0a1 bcbe 6dff 393f d556 833f
00000110: c5ba 023f 867e 903e bf35 01bf ead2 733f
00000120: a217 a6bf 3fb8 10bf c3e6 0ebe d728 3c3f
00000130: 009e 863e 153b c8bf c089 253e ca40 91be
00000140: 8e37 fabd cb93 c33e 2eff de3d 45f2 1b3e
00000150: f571 ba3d 85d8 aebe ca15 7b3f f841 e6bf
00000160: d463 eabe a9cf 21bf e4bc 81bf 789a a8be
00000170: 4513 97bf 1019 30bf 51cb 09be 1c43 95bf
00000180: 8d4b 11be 544a 86be d7ac 74be 3047 7b3e
00000190: 0ab8 9e3d 4567 13bf c17c b53e 36f3 0cbe
000001a0: 6687 42bf ac79 e1be 7520 bf3e 7d8e 30bd
000001b0: c3a4 1ebe 9874 87bf bfe7 b43e 403c 74be
000001c0: 7e6c c6bd f5e5 90be 28a2 d03e 1e68 31be
000001d0: 1431 c6bc a1c4 d0be 356c 893f 4b28 b1bf
000001e0: 14fe f1be 75a4 85be c1f8 84bf 4762 99be
000001f0: 4ce0 bec0 aaeb 01bd bb1a 943e 0801 bcbf
00000200: 7304 ea3d a623 6c3e 796a 88be 9fc0 bcbf
00000210: c100 db3f 9606 48bf 271e bcbd 4782 82bf
00000220: 30ac c53d 8b19 25bd 2a4f 733e 25bb a9bc
00000230: 89ea 0fbf eeee 803d 2e98 5abf e8e2 1dbd
00000240: df54 49bf 6608 ba3c f28d f0be 6d65 a4be
00000250: cb3c 283f b84b a5bf ebce a83e 8227 febe
00000260: 747c 4cbf 2e7e 55be 2447 79bf 7115 edbe
00000270: 5e36 fbbe 0074 90be 6e00 d3be 568f cabe
00000280: 1355 3a3d d3a3 70c0 0ecf 19be 8e3c 9fbf
00000290: 03bc 1dc0 8803 acbf 6169 8b3e 564f bebf
000002a0: c93b b93d 07a8 0dbd 33e8 b23d 823d 873e
000002b0: fed3 bcbf 9502 f6be a1c7 e2be 93be 1e3d
000002c0: f84a 07bf 3486 e9bd 1e0e 72be 052a ecbf
000002d0: e859 563c 081c 59c0 f004 cc3e 9e22 0bbf
000002e0: 8a26 30c0 d013 fcbe d92b febe 3a36 eabd
000002f0: f6a2 753f 1d36 19bf 5c9b 4bbf 6272 b1bc
00000300: 132f 9a3f bf49 973d 2ebc 34bf d4ea 08bc
00000310: 050c 99bf 96c6 cc3e 752d 98be 3c8e adbf
00000320: 9aef 58be c2df 4ebe 7389 80be d46a d1be
00000330: ea9f 743d a8ff 00bd 5b99 23be 7506 313e
00000340: f130 d9be f314 14bf eed1 59bc 0389 b9bd
00000350: 6f8c 6abf c43b a0bc 6af4 283f 5f91 5dbf
00000360: 66d6 123e 09db 903f 697e 1bbe 31ca 4ebe
00000370: 11fd adc0 6132 cb3e a242 513f 834c 693e
00000380: 3695 243d 17b9 ea3e 3a0c 9ebf c7b0 4e3f
00000390: 5c22 bfbe 3983 10be 8ee1 dfb9 b7dc 7fbf
000003a0: 8a76 cf3d e6f6 afbe 3fa2 c7be 6f0a 2abf
000003b0: 2d99 00bf 808a 323f 5bea c2b9 59e8 1cbe
000003c0: 620d 9b3d e304 2cbf 4e62 cdbc 6dab 15be
000003d0: 399c 2cbf ef7e c0bd 6a33 1abf 0877 e6bd
000003e0: fb6f 8d3e 1f1b 58bf 69d4 a43c f2d7 0cbe
000003f0: 6229 04be af91 e0be 7c48 543d e6e3 413e
