Project/app/src/main/assets/converted_model_4layer.tflite (tflite, 46272 bytes, 10 tensors)

sequential/dense/BiasAdd/ReadVariableOp f4 [2]
000000 50 4e f8 3e e8 4d f8 be
       0.48497248 -0.48496938

sequential/conv2d/BiasAdd/ReadVariableOp f4 [16]
000000 3b 1a eb be 65 5b fb be 12 09 d3 be e4 7a 1b bf
       -0.4591845 -0.49093166 -0.41217858 -0.6073439
000010 75 82 94 be de 19 92 bb fa 0c cb be 2d 55 82 be
       -0.2900578 -0.00445865 -0.39658338 -0.2545561
000020 f3 90 ea bf 11 64 ed be 37 36 15 bf 51 ad 28 bf
       -1.8325485 -0.46365407 -0.5828585 -0.6588946
000030 51 f7 29 c0 be f1 1a bf 90 aa ad be 0b e9 ae c0
       -2.65572 -0.6052512 -0.3391919 -5.4659476

sequential/conv2d_3/BiasAdd/ReadVariableOp f4 [32]
000000 b4 5c 5c c0 91 fe fd 3f 2b 2e 6c c0 44 54 e6 bf
       -3.4431581 1.9843313 -3.6903179 -1.7994466
000010 b6 f2 04 3f a0 ff 7b 3f 0f 67 32 40 b0 b0 21 bf
       0.5193285 0.9843693 2.7875402 -0.6316023
000020 88 51 48 bf f5 f4 a3 3e b2 61 97 c0 f2 c4 c0 3e
       -0.78249407 0.32022825 -4.7306757 0.37650257
000030 0a 83 4c c0 54 e0 d8 3f 8e f7 01 c0 8f 31 65 c0
       -3.195498 1.694346 -2.0307345 -3.5811498
000040 ef 79 8a c0 aa c1 78 c0 5d 57 a9 c0 95 da 90 c0
       -4.3273845 -3.8868203 -5.2919145 -4.5266824
000050 2f f0 e2 bf 3f ba 3a bf 5b 26 94 c0 43 6f 19 c0
       -1.7729548 -0.7294044 -4.629682 -2.3974159
000060 f2 d9 28 c0 90 4b f0 bf e4 b9 6f be de 66 a9 bf
       -2.6383023 -1.877306 -0.23410755 -1.3234518
000070 20 ae 3a 40 a5 73 23 bf 5d 15 93 c0 09 84 0c 40
       2.9168777 -0.63848335 -4.596358 2.1955588

sequential/conv2d_2/BiasAdd/ReadVariableOp f4 [32]
000000 ed b2 58 be 93 8b 31 3e d3 5c de bd ab 6b 04 bf
       -0.21162005 0.173384 -0.108575486 -0.5172679
000010 8e b1 c8 bf 0c 9b 92 c0 71 44 9f c0 17 da 86 bf
       -1.5679185 -4.5814266 -4.9771047 -1.0535306
000020 85 e1 0d 3f eb f8 cf bf 4b f6 6e 3a 05 7d 0f c0
       0.5542224 -1.6247839 0.000911568 -2.2420056
000030 3b e3 67 bf da 34 96 3e 8f c8 84 c0 4f 11 9a bb
       -0.905811 0.29337198 -4.1494823 -0.0047017704
000040 8e 1e c7 3f 16 f7 bc bf 52 c4 0f be b3 a8 e8 3e
       1.55562 -1.4762905 -0.14039734 0.45441207
000050 59 a7 81 be 12 26 2c c0 0a ea 86 3f f0 43 40 c0
       -0.2532299 -2.6898236 1.0540173 -3.0041466
000060 81 49 2b 3e ab a0 be bf 1e 57 24 3d fa d5 8f 3f
       0.16727258 -1.4892782 0.040122144 1.1237175
000070 d6 64 38 bf cc 58 81 3f 9f 2d dc bf a5 61 f0 3e
       -0.72028863 1.0105224 -1.7201422 0.46949497

sequential/conv2d_1/BiasAdd/ReadVariableOp f4 [32]
000000 a8 81 c2 be f5 10 d3 bf d1 83 e0 be af 6a db be
       -0.37989545 -1.648955 -0.43850568 -0.4285483
000010 77 b4 71 be be a9 55 bf bc 79 09 3c 58 26 ed be
       -0.23603998 -0.8346213 0.00839084 -0.46318316
000020 f0 95 98 3b fa b2 d0 be 44 f9 39 c0 74 a1 07 be
       0.004656546 -0.40761548 -2.905839 -0.13245183
000030 40 ee cb bf 1f 93 41 c0 05 6c b2 bb e8 ac 97 bd
       -1.5932083 -3.0246046 -0.005445006 -0.07406026
000040 a6 f1 5d be 19 86 49 3e 63 f8 97 3e c0 d3 43 c0
       -0.21674213 0.1968006 0.29681692 -3.0597992
000050 3b b5 97 bf cf cc 99 be 23 a6 2c c0 5d 82 92 be
       -1.1852182 -0.3003907 -2.6976402 -0.28615084
000060 b8 49 d5 be 64 01 a7 be a2 f2 4a 3b 4c 1a f8 be
       -0.41657805 -0.32618248 0.0030967374 -0.48457563
000070 79 4e 16 be b7 bf 1a 3f e0 e0 2d c0 7d 10 ae be
       -0.14678372 0.60448784 -2.7168503 -0.33996955

sequential/dense/MatMul f4 [2, 32]
000000 bc 7c ee bd 3a f0 f2 3d 38 e1 90 3d d6 91 87 bd
       -0.11644885 0.11862226 0.07074207 -0.06619613
000010 b0 ba a6 bc ca 25 33 3d 6f eb ab be a7 8e 14 be
       -0.020352691 0.04373721 -0.3357806 -0.14507543
000020 e9 f0 ac be d7 81 e2 bd d1 58 bd 3e a4 c5 eb 3d
       -0.3377755 -0.11059921 0.36981824 0.11512306
000030 5e f5 e7 bc 46 a8 47 3d c5 b0 ef bd c6 6f b9 be
       -0.028315242 0.048744462 -0.11703638 -0.3621809
000040 4f 7a b7 3e 7a 82 60 3d 98 12 5a be bb 38 12 be
       0.35835502 0.054811932 -0.21296155 -0.14279453
000050 59 6e a0 be 41 7d ab bb af 78 fe 3d 5e 4e be bd
       -0.3133419 -0.0052334373 0.12425362 -0.09292291
000060 a8 c3 2d 3e 8a 8c a2 3d 00 a4 08 be f0 11 87 3e
       0.16969168 0.07936962 -0.13343811 0.26380873
000070 49 dc 82 bd 13 2f a8 bd 3b 9d f5 bd 9c 1a 63 be
       -0.06389672 -0.08212104 -0.1199288 -0.2217812
000080 e7 25 a9 bd df bb 4c 3e 8c ce 1e bd 69 bf e6 bd
       -0.082591824 0.19993542 -0.038771197 -0.11266977
000090 f2 89 95 3d 9b 86 37 3e 51 bf 0b bb b3 81 09 bd
       0.073017016 0.17922442 -0.002132375 -0.033570956
0000a0 70 00 93 be f5 b0 36 be 45 8b a6 3e e9 40 61 3e
       -0.2871127 -0.17840941 0.3252813 0.21997418
0000b0 f4 e6 ac bd 3b 7b e4 bd 9e d6 26 be 16 e3 c8 be
       -0.08442488 -0.11156317 -0.16292807 -0.39235753
0000c0 09 61 92 3e dd 66 c6 bd 75 bf 88 be 7c 39 3a be
       0.28589657 -0.09687588 -0.2670857 -0.18185991
0000d0 a9 e7 81 be 05 36 d7 3d 53 6c 8b 3d 52 85 09 3d
       -0.25372055 0.1050835 0.068077706 0.03357441
0000e0 d5 7e 9d 3d 82 aa 69 bd b3 16 a4 bd 30 64 aa 3e
       0.07690207 -0.057047375 -0.08012142 0.33279562
0000f0 17 c3 a4 3d cb 5b f7 3b a0 95 3e be 4f 00 52 3d
       0.08045023 0.0075487844 -0.18611765 0.051269826

sequential/conv2d/Conv2D f4 [16, 2, 2, 1]
000000 66 aa 10 be 4a 27 66 3e b2 9a 64 be e6 e1 af 3e
       -0.14127502 0.22475925 -0.22324637 0.34352034
000010 7b 76 b7 bd b2 1d 54 3e 22 a9 8e be 9a f7 a7 3e
       -0.08958145 0.20714453 -0.27863413 0.32806093
000020 0b 7f 25 3d e9 fc 94 3d d7 34 ed 3d 7f 94 5d 3e
       0.04040436 0.07274801 0.11582344 0.21638678
000030 f4 5a c9 3e ac cd 92 be 14 13 aa be 15 64 cf 3e
       0.39327204 -0.2867254 -0.3321768 0.40506044
000040 e7 e2 24 3e 85 2d 0e 3e 77 1c b3 bc b4 15 fa bd
       0.16102181 0.13884552 -0.021864159 -0.12211171
000050 54 cf 85 3e 51 c4 33 bd b1 ba 69 3e 87 87 8c bd
       0.2613474 -0.043888394 0.22825123 -0.06861787
000060 64 5e 5f bd 17 03 a0 bd e0 ea 15 be e4 39 67 be
       -0.054533377 -0.07813089 -0.14640379 -0.22580677
000070 bf 41 7c bd f1 93 ea 3d b2 f7 42 bd c2 7e 9d bd
       -0.061586138 0.11453999 -0.047599502 -0.07690193
000080 5e 0c 53 3e 9b d3 df 3d 5e b4 0c bb 9a 61 62 3e
       0.20610186 0.109290324 -0.0021469812 0.22107545
000090 ba f1 3c 3d 9f fd 7b 3d e3 77 c7 bd 6f 85 b0 bd
       0.046128966 0.06152117 -0.097396635 -0.086192004
0000a0 5b 84 0c be 28 d5 50 3c ed b5 b1 bd 98 b8 09 be
       -0.13722365 0.012746133 -0.08677278 -0.13449323
0000b0 52 c9 99 3d 3f 23 9b 3d 53 f8 4a 3e 7e 90 46 3e
       0.07509102 0.07575082 0.1982129 0.19391057
0000c0 13 14 f7 3d 3e 93 91 3d 48 f1 e8 3d 65 be 07 3e
       0.12064376 0.07108162 0.11374146 0.13256223
0000d0 91 77 86 be 4d 0a b8 3e 64 5b bd 3e 5d 45 bf be
       -0.26263097 0.3594536 0.36983788 -0.37357607
0000e0 b7 92 3f 3e 44 47 e1 3d 98 d2 88 bd e5 2c 61 bb
       0.18708311 0.10999921 -0.066807926 -0.0034359035
0000f0 1e ec 0c 3b b1 64 a2 3d 23 5c 29 3e 19 dd 5e 3e
       0.0021503041 0.079293616 0.16539054 0.2176403

sequential/conv2d_1/Conv2D f4 [32, 2, 2, 16]
000000 44 ff 91 3e 9d cb 84 3e 7e a4 0b 3f 47 dc 8c 3d
       0.28515065 0.25936595 0.5454787 0.06877952
000010 9c c1 68 3d 37 00 de 3e aa a1 a0 bf e9 23 82 bf
       0.056825265 0.4335954 -1.2549336 -1.0167209
000020 cd ae 20 3d 2d 54 f4 be 14 9e ca bf f8 b2 8f 3f
       0.039229203 -0.4772047 -1.5829492 1.1226492
000030 3e f1 c2 bc 86 62 eb be 07 38 78 3d 5f ce 2d be
       -0.023796674 -0.45973605 0.060600307 -0.16973256
000040 96 de db be ca 5f 1e be 32 17 fe 3d dd c2 7d be
       -0.42943257 -0.15466228 0.12406768 -0.24781366
000050 2e f4 9c bd 22 48 45 3e 14 a8 85 bf 3a 84 bb bf
       -0.07663761 0.19265798 -1.0441918 -1.4649727
000060 fa b4 58 be a5 ac 2a bf 92 ba c5 bf 73 66 8c 3d
       -0.21162787 -0.66669685 -1.5447562 0.06855478
000070 13 59 2c 3d 66 7d 0e 3e dd 5b d2 bd ff 0a ec bc
       0.042077135 0.13915023 -0.10271428 -0.028813837
000080 a4 c7 1a 3e 47 50 83 bd e4 80 c8 be 4e 54 bf be
       0.1511522 -0.06411796 -0.39160836 -0.37369007
000090 80 5f 85 bc e6 c2 02 3e 8e 80 8c 3f 38 fe 15 3f
       -0.01628089 0.1276966 1.0976732 0.5859103
0000a0 93 5d a9 bf 18 b3 68 3e e1 92 de 3e da e6 25 3f
       -1.3231682 0.22724569 0.43471435 0.64805377
0000b0 a2 bd c1 bf 2d 12 11 bf 2f 29 8f bd 62 4a 00 bc
       -1.5135996 -0.5666836 -0.06990277 -0.007830234
0000c0 f5 9b 0e be 8f ef 2f 3f ca 02 20 3e a2 6e 01 bf
       -0.1392668 0.6872491 0.15626064 -0.5055944
0000d0 b7 9e 4b be 6d 10 b8 be 99 08 36 be db 41 78 3e
       -0.19884764 -0.35950032 -0.17776717 0.24243872
0000e0 28 f2 c7 bf 9e 96 53 be e5 99 95 bd 6f b2 2a 3f
       -1.5620775 -0.20662925 -0.07304744 0.6667852
0000f0 c2 a0 82 bf ba 09 ac be 63 6b b1 be 4f e0 27 3f
       -1.0205309 -0.3360117 -0.34652242 0.6557664
000100 c0 9c 80 bb d0 af ad 3e 6d 5c 64 bf 1f 46 bf 3e
       -0.003924936 0.33923197 -0.8920353 0.37358186
000110 16 b2 33 3f c1 fd d7 3e d5 1b 0e 3d 6b 34 1d be
       0.7019361 0.42185786 0.03469451 -0.15352027
000120 ca 72 7f bf 42 fc 1a bc bc af 8b bd 64 a1 5b bf
       -0.9978453 -0.009459557 -0.06820628 -0.8579314
000130 71 64 9d bf e5 fd a8 be b8 11 fa 3e 66 0a 1d c0
       -1.2296277 -0.33006206 0.48841643 -2.4537597
000140 c3 fa 94 3e d4 18 a9 3e 53 4d 65 be c1 a0 d5 3e
       0.29097566 0.33026755 -0.22392778 0.41724208
000150 96 5c 20 be f3 15 a8 3e 28 2b b6 be 7e c1 02 bf
       -0.15660319 0.32829246 -0.355798 -0.51076496
000160 eb 42 ff 3c 89 62 7e be ea 9d c5 be 69 67 91 3c
       0.031159839 -0.24842276 -0.3859704 0.017749505
000170 2a 70 65 3e 59 be 4d 3f 3b 40 6b be fc b4 58 be
       0.22406068 0.8036857 -0.2297372 -0.2116279
000180 6b 84 25 3f b9 90 72 3e 82 21 3a c0 cd 36 f8 3e
       0.6465518 0.2368802 -2.9082952 0.4847931
000190 b6 2d ce bd de cf 8a bf f4 62 25 38 3c 12 81 3e
       -0.100673124 -1.0844686 3.9431223e-05 0.25209224
0001a0 89 36 96 c0 1d 4b 13 3e 46 25 ae 3e fd a3 42 c0
       -4.694157 0.14384122 0.34012812 -3.041259
0001b0 d6 39 90 c0 a3 e8 96 3e 1c c3 11 bf a5 c3 44 c0
       -4.50706 0.29474363 -0.5693834 -3.0744412
0001c0 c9 9b f0 3e ac 3c 2e 3f 04 7a 92 bf 29 c6 05 3f
       0.46993855 0.6806133 -1.1443486 0.52255493
0001d0 73 cf 6d bd 17 4d 1f 3e 2c 0a 06 be 10 89 96 3e
       -0.058059167 0.15556751 -0.13089818 0.29401445
0001e0 ee bc 9c bd 62 a1 2e 3e 79 81 6f 3e 15 75 b0 bf
       -0.07653223 0.1705375 0.23389234 -1.3785731
0001f0 23 b6 92 bf 89 f3 90 3e 16 78 38 3e 02 cd e5 bf
       -1.1461834 0.28310803 0.18014559 -1.7953188
000200 d4 a0 05 bf 39 52 a4 bd 98 ec 22 bc dc bd 82 be
       -0.5219853 -0.08023495 -0.009944104 -0.25535476
000210 5f 03 4b be ee 87 2a be 8d 14 90 3f 1d 84 4b 3e
       -0.19825505 -0.16653416 1.1256272 0.19874616
000220 4e 08 b9 be fd 54 d8 be ec 88 0b 3e 6f 5e 95 3e
       -0.36139148 -0.4225234 0.1362645 0.2917361
000230 80 5f 4c be 8d d8 ac bd 4e a0 3c bf 54 64 42 3e
       -0.19958305 -0.08439741 -0.73682106 0.18983585
000240 a6 f1 94 be d2 35 9b bb 67 e8 87 bf 63 d4 21 be
       -0.29090613 -0.0047366405 -1.0617799 -0.15803675
000250 fb e9 b5 be d3 96 7c bf 6f 68 82 be b3 71 16 3e
       -0.35530075 -0.9866764 -0.25470302 0.1469181
000260 2d 19 d1 be fa 96 24 be 71 44 90 3c f1 6a 3a bf
       -0.4083952 -0.16073218 0.01761076 -0.7281943
000270 bf c4 54 bf e7 e0 65 3e 51 e6 48 3d 6c f3 3d bf
       -0.8311271 0.22449075 0.04904777 -0.7419956
000280 1f a3 97 be ea b1 41 be 2e 3c 79 3e 66 a6 0e bc
       -0.2961664 -0.18915525 0.24339363 -0.008706665
000290 11 fc ea 3e a4 d7 e1 3e 9c 62 24 bf af b7 7c be
       0.45895436 0.44109833 -0.64212966 -0.24679445
0002a0 e4 8a 14 be e0 d1 4c 3f f3 fe cc be b1 ae dd bd
       -0.14506108 0.80007744 -0.4003826 -0.10824335
0002b0 11 be eb bd f8 c4 c6 be 15 3c dc 3e 20 c4 35 be
       -0.11510862 -0.3882215 0.4301459 -0.17750597
0002c0 21 bf 49 3e 5e ee 09 3d 06 78 c2 3a 42 67 70 be
       0.19701816 0.03367459 0.0014836795 -0.2347689
0002d0 4e 34 6c 3e 10 10 d0 3d 2b 78 02 bf 76 72 37 be
       0.23066828 0.10159314 -0.5096461 -0.17914757
0002e0 26 a9 e0 be 3f 53 df 3e 88 d7 07 bf a5 ac 48 3e
       -0.4387905 0.436182 -0.5306325 0.19597109
0002f0 84 c3 01 bf e1 2b 52 be 57 e6 8e 3d 11 5c 15 be
       -0.5068896 -0.20524551 0.069775276 -0.14585902
000300 e4 06 07 bf 3f f3 f8 be a6 0c be 3e 77 f4 3c bf
       -0.5274489 -0.48623082 0.37119025 -0.73810524
000310 10 38 09 3d 15 56 e0 3e d4 b0 37 bd 48 ad fe bd
       0.03350073 0.43815675 -0.04484637 -0.124353945
000320 88 ce 7c bf 5e bf bf 3c 3d f1 3a be a7 b9 eb bd
       -0.9875264 0.02340668 -0.18256088 -0.1151002
000330 b0 52 8f bf 65 5f ad bf ec 1b 53 3f 27 cf b8 bf
       -1.1197109 -1.3544737 0.8246448 -1.4438218
000340 6e e5 b5 be 6d 88 20 bf 17 fc ba 3e e2 4a 85 bf
       -0.35526603 -0.6270817 0.36520454 -1.0413477
000350 1b 0b 8b 3f db c2 7d 3e d1 6f d6 3c f2 e1 07 3d
       1.0862764 0.24781363 0.026176365 0.033174463
000360 4e b9 b8 bf bf b9 2c bd 8d b6 5a be 2a 45 5b 3e
       -1.443155 -0.04216933 -0.213587 0.21413103
000370 fa f4 ea bf 90 56 d8 bf d1 56 d9 3e d9 cb df bf
       -1.8356011 -1.6901417 0.42449048 -1.7484084
000380 b3 41 69 be 49 13 00 3e b3 c3 07 be 9f e0 fe bd
       -0.22778969 0.12507357 -0.13258247 -0.12445187
000390 4a 2d 09 3e 4b ba 86 be 5a 25 d0 3e 35 0a aa 3e
       0.13396183 -0.26314005 0.40653497 0.33210912
0003a0 d5 50 67 bf 91 3b a2 3e 48 a3 25 3e e1 53 b5 be
       -0.90357715 0.3168607 0.16175568 -0.35415557
0003b0 b4 be 0a c0 b3 b2 29 bf 4f 36 a4 3e 39 88 c2 be
       -2.1678896 -0.662883 0.32072684 -0.37994555
0003c0 2b bb 9f bf 40 70 47 bf cd 18 1f 3b c5 2c 0c bf
       -1.2478994 -0.77905655 0.0024276257 -0.5475581
0003d0 9c 39 e2 3e 59 8d bc be 15 7c a6 3c 79 ca c6 3d
       0.44184577 -0.3682659 0.020322839 0.09706587
0003e0 3f 49 0b c0 83 fc 99 3d c3 33 9c be 6c 81 b1 bf
       -2.1763456 0.07518866 -0.3050824 -1.3867621
0003f0 20 86 c6 bf 3e c2 74 bf ba c4 2f 3e ea e7 b6 bf
       -1.5509682 -0.9560889 0.17164889 -1.4289525

sequential/conv2d_2/Conv2D f4 [32, 2, 2, 32]
000000 4b 54 09 c0 43 e1 c2 bf 0d 9f a6 bf 7f 39 7b bf
       -2.1457698 -1.5224994 -1.3017288 -0.9813461
000010 41 3e 68 3e 86 b5 49 bf 27 ae 56 be b0 08 59 bf
       0.22679998 -0.7879261 -0.20964871 -0.8477888
000020 f1 f1 86 3f c6 32 13 bf 28 e9 4d bf 3f 82 82 3f
       1.0542585 -0.5749935 -0.80433893 1.0195998
000030 63 dd d8 be 1e 6b 3d be 6d d0 a6 bf d7 a3 0c bd
       -0.42356405 -0.18497893 -1.3032357 -0.034335937
000040 23 39 f5 3e 81 39 0b c0 1a 4b 16 be 2e 76 b1 bd
       0.47895154 -2.1753848 -0.14677086 -0.08665119
000050 2e 93 41 bf 5a 94 df be a6 d4 ce be 6a b1 aa bf
       -0.75615203 -0.4366787 -0.40396613 -1.3335392
000060 9c 46 0a bf 2e a5 c1 be b7 97 94 3e de 5a 01 3e
       -0.5401399 -0.37821335 0.29022 0.1263232
000070 1a 14 c8 bf 3d 21 0b 3e 50 28 f0 be 04 7d 21 bf
       -1.5631135 0.13586898 -0.46905756 -0.63081384
000080 f5 9d 30 3e e8 88 44 bf 0e 46 c0 3d 7a 25 00 3f
       0.17247756 -0.767714 0.09388362 0.50057185
000090 74 a6 c0 be ad 71 73 bd 4f 5b 87 bf 8d ef be 3e
       -0.37626994 -0.05943458 -1.057474 0.37292138
0000a0 68 59 79 bf 63 f0 9b 3d 7e df f2 be b6 73 88 3f
       -0.9740205 0.076142095 -0.47436136 1.0660312
0000b0 ef b1 1d 3f d0 72 9f be cb 10 75 3f 5b a9 6b bf
       0.6159963 -0.31142282 0.9572875 -0.9205529
0000c0 ce 71 8d 3e 21 74 b8 3f bc b2 1c bf 59 16 7f 3e
       0.2762589 1.441044 -0.61210227 0.24910869
0000d0 9b 09 fc bd f0 50 00 3e 14 8a 77 bf 14 9d 0f 3f
       -0.123065196 0.12530875 -0.96695065 0.5609906
0000e0 f3 cc b8 3f ce a7 b3 be 14 31 c0 3e 7e d5 c4 be
       1.4437546 -0.35088962 0.37537444 -0.38444132
0000f0 fb f5 3f be b1 ff 6b c0 d9 0d 3d bf 03 5a 83 be
       -0.18746178 -3.6874812 -0.73849255 -0.2565461
000100 57 0d 55 bf 0f 91 b6 be 6a c4 bc bf 04 59 de bf
       -0.8322348 -0.35657546 -1.4747441 -1.7370915
000110 06 d0 d8 bf f1 d4 04 bf 5a 43 03 bf 77 33 35 bf
       -1.6938484 -0.5188742 -0.51274645 -0.70781654
000120 18 51 39 3e 73 49 63 bf 2a 6f a9 bf 4d 13 32 3f
       0.18097341 -0.8878395 -1.323705 0.695607
000130 bc 22 2f c0 90 da fa 3c e6 8f 8d bf 99 ba cc 3d
       -2.736495 0.030621797 -1.1059539 0.09996528
000140 1b cf 3d 3f 4e 4a 07 c0 d6 a5 7c be 10 d7 91 bf
       0.7414414 -2.1139102 -0.24672636 -1.1393757
000150 07 7e 6d c0 65 3d d5 bf 67 d8 6d be 5f 4d e3 bf
       -3.710817 -1.6659361 -0.23227082 -1.7757987
000160 77 aa 82 be 7f ac 20 bf ca 07 d0 be a0 85 a9 3e
       -0.2552068 -0.6276321 -0.40630943 0.3310976
000170 a9 01 c4 bf 99 8e f2 3d 0f 64 d4 bf fd e0 c1 be
       -1.5313007 0.118436046 -1.6593035 -0.37866965
000180 47 bb 9d 3d d7 65 b7 be 81 1d 72 b9 48 b0 02 40
       0.07701736 -0.35819885 -0.0002308991 2.0420094
000190 9e 7e 60 3f f5 89 23 3c 0d 82 46 be 6f 47 99 3f
       0.876932 0.009981622 -0.19385548 1.1974925
0001a0 c8 a0 79 be 5e 7f a0 bd 08 75 b9 bf e2 29 8f 3e
       -0.2437774 -0.07836793 -1.448884 0.27961642
0001b0 6b 7a 09 3e 52 bc 28 bf 33 83 9c 3d f7 d3 16 bf
       0.13425605 -0.65912354 0.07642212 -0.5891718
0001c0 a0 e2 c7 3c f5 c8 79 3f fb 94 f7 be 9c 85 6a bd
       0.024400055 0.9757226 -0.4835585 -0.057256326
0001d0 2c ee de bf 19 4b 16 3f c8 1a ff 3d a5 c9 94 3e
       -1.7416434 0.5870834 0.1245628 0.29060093
0001e0 05 31 82 3f 64 75 00 3f 28 ae 1a bf 3b 5c dc bd
       1.017121 0.50179124 -0.6042199 -0.10759779
0001f0 0a 12 9e 3d 49 e6 47 c0 70 1d 44 bb b8 37 08 3f
       0.077182844 -3.1234305 -0.0029924773 0.5321002
000200 95 df 09 bf 55 25 b7 bd cd d6 18 3e 76 a5 5d 3e
       -0.53856784 -0.089426674 0.1492569 0.2164515
000210 87 e2 00 3e 25 52 1d bf f1 27 9c bf 73 47 36 3e
       0.12586413 -0.6145347 -1.2199689 0.17800693
000220 ba 74 f5 bf 37 63 e3 be 46 89 c5 bf d9 6d a2 bf
       -1.9176247 -0.44411632 -1.5432518 -1.2689773
000230 4b 6e 47 be 67 a9 1b c0 6a 00 5b 3e 11 64 fd bf
       -0.19475667 -2.4322145 0.21386877 -1.9796163
000240 08 1c ae bf bf 25 bf 3e 5a e7 24 3f f9 df f5 be
       -1.3602304 0.37333485 0.64415514 -0.4802244
000250 c4 0b f6 bf 60 20 e4 bf 15 de 34 bf ae d2 07 3f
       -1.922234 -1.782238 -0.7065137 0.53055847
000260 b0 76 e5 3e 36 13 92 bf a4 9a 73 bf 98 ec e0 bf
       0.44817114 -1.1412113 -0.9515784 -1.7572203
000270 7e db f4 3e 03 30 de be 41 b5 0d be 47 6a 7e 3e
       0.4782371 -0.43396005 -0.13838674 0.24845229
000280 42 13 5b bf 06 7d dc bd fa fd 7f be bb b5 96 be
       -0.8557626 -0.10766034 -0.24999228 -0.29435524
000290 f0 6b 8f 3c c2 e5 5e 3e 59 8e 32 be 07 a7 e2 3e
       0.017507523 0.21767333 -0.17437114 0.44268057
0002a0 b4 f3 94 bf 18 8b 03 3e 11 dc a6 bf 62 48 9c be
       -1.1636872 0.12846029 -1.3035909 -0.30523974
0002b0 0a 16 09 bf 35 2b 53 c0 df c2 32 be a0 fd 34 c0
       -0.53549254 -3.2995121 -0.1745715 -2.82798
0002c0 cb 36 01 c0 ca 26 cb 3e 54 22 a9 be 65 1a 0d be
       -2.0189693 0.3967803 -0.33034003 -0.137796
0002d0 85 e1 6d bf d9 15 1f c0 36 47 75 bf 99 e2 ce be
       -0.9292224 -2.4857085 -0.95811784 -0.40407255
0002e0 9b 96 05 3e a7 3a 0f bf 4a d0 8e bf cc ff bb bf
       0.13045733 -0.5594887 -1.1157315 -1.4687438
0002f0 6c 12 b5 bd 40 4b d1 be c8 e2 96 be 23 75 c4 3e
       -0.08841404 -0.40877724 -0.29469895 0.38370618
000300 48 43 1f 3e 78 2a 53 3e 8b eb f8 3d cb 71 99 bf
       0.1555301 0.2062167 0.12154301 -1.1987852
000310 12 3c 88 bf 96 96 05 bf 76 5f cf 3e 2f 19 0b 3f
       -1.0643332 -0.521829 0.40502518 0.543353
000320 42 60 76 bf d4 1f 11 be 2c ad 96 3f 8f f7 7c bd
       -0.9624063 -0.14172298 1.1771598 -0.061759528
000330 6e 84 9c 3e 61 14 25 bd 96 37 48 3f fd 4f 19 be
       0.30569786 -0.040302638 0.7820982 -0.1497192
000340 77 cd db bd db da 6c 3e a1 1e 27 c0 df 45 1b bf
       -0.10732549 0.23130362 -2.6112444 -0.6065349
000350 69 d6 30 3f 2a b1 03 c0 a7 19 d1 be d4 0c fa 3e
       0.69077164 -2.0576882 -0.40839884 0.48837912
000360 33 91 7a 3e e5 41 11 3f 32 07 15 bf 3a 19 d4 bb
       0.24469452 0.5674117 -0.58214104 -0.006472734
000370 de 45 89 3f 2a 68 5a bf dc 9e 2e be d8 bb 6a 3e
       1.0724447 -0.8531519 -0.17052788 0.22923219
000380 ad 18 e1 3b 4d da e7 3e ca 87 19 bf fa ee ad bf
       0.0068693967 0.45283738 -0.5997282 -1.3588555
000390 a1 09 58 c0 98 4f 73 bf 4c 62 c7 3d c6 fb 35 3f
       -3.3755877 -0.95043325 0.097355455 0.710873
0003a0 ee 63 8e be ff f8 6b bf c8 dd 22 bf 10 ba 69 3f
       -0.27810615 -0.9217681 -0.6361966 0.91299534
0003b0 e5 f6 03 3e a3 fb 01 c0 f1 93 69 3c 45 99 04 c0
       0.12887152 -2.0309837 0.014256463 -2.0718548
0003c0 c5 df b1 bf 0f 9e 47 3f e6 c1 29 c0 86 b7 fe 3d
       -1.3896414 0.77975553 -2.6524596 0.12437348
0003d0 2e 68 0d be f8 c2 b6 bf 4c 57 85 3e c1 25 12 3f
       -0.13809273 -1.427825 0.26043165 0.5708886
0003e0 45 05 9e 3e 7b d5 6a bf 2a 7b a3 3e 9d 23 be 3e
       0.30863395 -0.91731995 0.31929904 0.37136546
0003f0 ca a8 b0 3f f0 d8 a3 3e 0e 2d ce be 19 d3 0a 3d
       1.380151 0.32001448 -0.4026875 0.033892725

sequential/conv2d_3/Conv2D f4 [32, 2, 2, 32]
000000 ec 74 cd 3e 64 2a dd bf ce cd 35 bf 96 85 da be
       0.40128267 -1.7278562 -0.7101716 -0.42680043
000010 dd 5b c4 be 2a 71 d0 bf ea 11 42 be 65 66 ab be
       -0.38351336 -1.6284535 -0.18952146 -0.33476558
000020 0b 94 98 3e 47 72 2b bf 8d 59 d7 bd 1e ef 30 be
       0.29800448 -0.6697125 -0.10515127 -0.17278716
000030 48 03 c4 3d 43 08 94 3e 5c db 8b 3e 2d d6 ec 3d
       0.09570938 0.28912553 0.27315795 0.11564288
000040 8c 5d 5d 3d be 50 4e be 28 0d c6 3e da 9d 9e bd
       0.05404429 -0.20147988 0.38681912 -0.077449515
000050 e7 d4 f5 3d ed 73 b8 bf 3e c8 81 be 70 dd c3 bc
       0.120034985 -1.4410378 -0.25348085 -0.0239093
000060 7a fb 5a bf 8d ad 7e 3f 7d 60 71 bf bc 0c 37 bd
       -0.8553997 0.9948357 -0.94287854 -0.04468988
000070 be 05 af be ea 31 2d bf 03 0e 28 3f 89 87 a2 3e
       -0.34184068 -0.6765429 0.6564638 0.3174403
000080 15 73 97 3f 0a 16 f6 bf 62 12 83 be b6 a6 a4 bf
       1.1831995 -1.9225476 -0.25599962 -1.2863376
000090 11 ec d0 be 1a e2 32 bf 53 30 96 3e fa 60 e7 be
       -0.40805104 -0.69876254 0.29333743 -0.45191175
0000a0 e0 9a 8d 3e 2b cb a0 bf 73 9e 75 3e a8 70 a1 be
       0.27657223 -1.2562002 0.23986225 -0.31531262
0000b0 21 c8 ad 3d 92 2f 0b bf a1 c2 c4 3d 45 c8 3a be
       0.08485437 -0.5436946 0.09607435 -0.1824046
0000c0 ff 4f 31 3e 04 1d 71 3c 6d 43 03 3c a2 3d 88 3e
       0.17315672 0.0147163905 0.008011681 0.26609522
0000d0 99 82 a2 be 07 fb cc bf 74 00 36 bf 98 2b 24 bb
       -0.31740263 -1.6014107 -0.7109444 -0.0025050398
0000e0 5c 28 91 bf da 35 6a be 1c 5c 5c bf b8 06 64 be
       -1.1340442 -0.22872105 -0.8607805 -0.22268188
0000f0 bd 92 ee be 21 44 b3 3e d8 98 b2 3e 03 7b a3 be
       -0.46596327 0.35012916 0.34882236 -0.31929788
000100 3d 89 96 3e 34 bb fb bd b7 6c c8 bf 1b 61 63 bf
       0.2940158 -0.122915655 -1.5658177 -0.88820046
000110 45 55 6e 3f 4f 09 09 3f f7 81 5c be 15 a2 c3 be
       0.9309886 0.5352983 -0.21533953 -0.38209596
000120 f3 44 f8 be 58 31 70 be a2 b3 13 bf 60 91 39 bf
       -0.48490104 -0.23456323 -0.5769597 -0.7248745
000130 51 27 44 3c cf ac 56 be 04 da 1c bf 8e a3 cc bf
       0.011972264 -0.20964359 -0.61270165 -1.5987413
000140 37 65 b7 bf ed 7b d1 bd 04 5a 2f 3f 46 68 e3 be
       -1.4327763 -0.10228715 0.6849673 -0.44415492
000150 87 1d 20 be a2 8c dd bc 1e fa 3b 3d 3b 32 d3 3e
       -0.15636264 -0.027044598 0.045892827 0.4124926
000160 c9 67 86 be 7a e4 cb bf 9a a6 8f 3e cb 6b 0b bf
       -0.26251057 -1.59291 0.28056794 -0.54461354
000170 15 91 70 3e cd b9 01 bd 4c 42 d7 3e 7f 07 23 bf
       0.23492844 -0.031671334 0.42042768 -0.63683313
000180 83 f8 93 be 2a 44 4c be 6f 3a ac be 6b 7a f2 bf
       -0.28900537 -0.19947878 -0.3363833 -1.8943609
000190 3f 51 cd 3c 3d 94 24 3e 92 2f 23 bf 27 b1 bd be
       0.025063155 0.16072173 -0.6374446 -0.3704922
0001a0 0a 75 e5 bf 09 b0 99 be 1c 4c 43 3e a0 29 95 be
       -1.7926342 -0.30017117 0.19072002 -0.2913332
0001b0 f1 30 06 be 64 8c a9 be fa d1 46 be 8a 4d 8f bf
       -0.13104607 -0.33114922 -0.19416037 -1.1195538
0001c0 8a ea 90 be d6 04 05 bd 1d b9 f8 3e aa ef 88 3f
       -0.2830394 -0.032475315 0.4857873 1.069814
0001d0 3f 63 77 bd 86 61 02 3e f7 92 c6 be a9 94 e1 3e
       -0.060397383 0.12732515 -0.38784 0.4405873
0001e0 32 b4 72 bf 7b b5 01 c0 0d b2 89 bc 03 64 6a bf
       -0.94806206 -2.0267017 -0.016808534 -0.91558856
0001f0 a2 fc d6 3e bd c7 16 bf ac 71 a6 3e 8e 89 21 bf
       0.4198962 -0.58898526 0.325086 -0.63100517
000200 ee 93 c9 3f de a7 bf be 0a 46 be be 09 ef 46 bf
       1.574827 -0.3743276 -0.3716281 -0.7770849
000210 de ee aa 3e 3a 53 86 bf 78 89 04 be e3 0d 6d be
       0.33385366 -1.0494149 -0.12943065 -0.23149829
000220 6f b5 01 3e 8a 99 38 bc d3 03 34 3f 86 08 a7 bd
       0.12666868 -0.011267075 0.70318335 -0.081559226
000230 b0 4a 32 bf f0 aa bf 3e 87 46 73 bf 07 d2 78 3e
       -0.69645214 0.37435102 -0.9502949 0.24298869
000240 86 b3 4a bf 13 aa 71 3e 71 ca c4 3e 95 db 84 3e
       -0.7918018 0.23600034 0.384357 0.25948778
000250 ee 6e e9 3d 69 84 b9 bf f8 33 80 bd 2d dc ba be
       0.11398111 -1.4493533 -0.06259912 -0.36496106
000260 a9 46 f9 3c 1e 41 33 3f 66 ce 7e be aa 39 14 bf
       0.030429201 0.70021236 -0.24883422 -0.5790049
000270 bc eb ec be 4e d3 e8 be e1 a8 fa 3d 60 86 96 bf
       -0.462736 -0.45473713 0.12239242 -1.1759758
000280 a2 c2 ee be b5 2e 7f bd e1 59 0f bf 61 88 e2 bf
       -0.46632868 -0.062300403 -0.5599652 -1.769787
000290 4a e3 de be ad 16 43 bf 4c 9b 38 be 1e 7b 47 bd
       -0.43532783 -0.76206475 -0.18027991 -0.048701398
0002a0 bd 14 3c 3f c4 1d 5b be 3e d9 1f 3f 38 01 3c be
       0.73469144 -0.21398073 0.6244086 -0.1835984
0002b0 d3 3b 2d bf f1 c7 52 3f c1 da a2 bf 16 25 c3 3d
       -0.6766941 0.82336336 -1.2723008 0.09528558
0002c0 65 46 05 bf 60 18 9f bd d9 2e 5d 3d 19 b6 10 3f
       -0.5206054 -0.07768321 0.053999756 0.5652786
0002d0 52 0f cb be 77 04 42 bf 4d 51 c4 bf c3 c1 60 bd
       -0.39660126 -0.7578806 -1.5337311 -0.054872286
0002e0 1e a9 4b be 04 9c 0e 3f f4 b0 e4 be 02 f5 a0 3b
       -0.19888732 0.5570681 -0.44666255 0.0049120197
0002f0 90 72 0a bf cf aa 01 3e 39 30 a8 bd 42 03 b0 3d
       -0.5408106 0.12662815 -0.08212323 0.085943714
000300 60 9f a2 3e 85 91 72 be 08 8d 95 3f bb 35 ba be
       0.31762218 -0.23688324 1.1683664 -0.36369118
000310 d8 80 49 3f 6b d1 cc bd 03 3f ce bf d8 5e a0 be
       0.78712225 -0.10000881 -1.611298 -0.3132236
000320 60 ce 68 c0 31 4c 8a bf 25 9d f3 bd ca de 37 c0
       -3.6375961 -1.0804502 -0.11895207 -2.872973
000330 06 02 6e be d0 28 b4 3e f5 51 d2 bf 4d 8c 58 bf
       -0.2324296 0.35187387 -1.6431261 -0.8458908
000340 1b d5 11 bf 47 63 3d be ff c6 ed 3e b2 cd b6 bf
       -0.569658 -0.18494903 0.46440884 -1.4281523
000350 14 4e 52 bf ca 8a a9 be da 96 d0 3e 23 b2 40 bd
       -0.8215039 -0.331137 0.4074009 -0.047044884
000360 7b 23 bf bd f0 d8 0c c0 91 bf 3e be 86 82 25 bf
       -0.09332939 -2.2007408 -0.18627764 -0.6465229
000370 65 48 1b 3e ac c1 5d 3f c9 cd a9 bf 91 a6 2a bf
       0.15164335 0.86623645 -1.3265926 -0.6666041
000380 d3 7a 4e bf c8 37 24 bf c8 f6 8d be 50 c9 08 c0
       -0.80656165 -0.64147615 -0.27727342 -2.1372871
000390 ae 4b 29 3f 10 b3 78 be 7e 55 15 bf ec f4 08 bf
       0.66131103 -0.24287057 -0.58333576 -0.5349872
0003a0 97 01 90 c0 de ca 0d c0 ea ec 21 bf e7 f2 dc bf
       -4.500194 -2.215507 -0.6325213 -1.7261628
0003b0 1f 9c cd be e3 79 a8 be 68 7e 76 bf 01 80 5a be
       -0.40158173 -0.32905492 -0.9628663 -0.21337892
0003c0 48 3c 06 bf c3 68 8d be df 5d 12 3f 9e 82 b4 3f
       -0.5243573 -0.2761899 0.57174486 1.4102361
0003d0 02 de 1f bf 0c a3 d3 bd 9a 6f 31 bf a2 a7 20 be
       -0.6244813 -0.10333833 -0.69310915 -0.15688947
0003e0 7c c9 3b bf ff 28 19 c0 10 bd af 3e b4 7f 2d bf
       -0.73354316 -2.3931272 0.3432393 -0.67772985
0003f0 b2 a1 02 3e 44 d3 4e bd f7 50 85 be c1 14 04 bf
       0.12756994 -0.050494447 -0.26038334 -0.5159417
