Project/app/src/main/assets/converted_model_4layer.tflite (tflite, 46388 bytes, 10 tensors)

sequential_1/dense_1/BiasAdd/ReadVariableOp f4 [2]
00000000: 48ad 8abe 51ad 8a3e
-0.27085328 0.27085355

sequential_1/conv2d_5/BiasAdd/ReadVariableOp f4 [32]
00000000: a1c0 e4bf 55bd 953f 7f92 3d3e 9900 5a3e
00000010: f2c4 58c0 e22e 02bf 4824 5a3f aa78 3540
00000020: ae1a 41bf 4c0c dcbe f786 20bf 1d14 47c0
00000030: 7d91 90be 103b d1be 2c1d dc3e be4d 8abe
00000040: 170c 2a3f 1b33 d33e 2d86 9cc0 64c5 bdbc
00000050: 59b5 3140 d014 ff3d 6639 bfbf 7d7d 963f
00000060: 5719 0cc0 0e08 5340 5a55 25c0 16c2 f3be
00000070: adc8 9cbf 2479 2dbf d2c6 adbf d73c 92bf
-1.7871286 1.1698405 0.18512915 0.2128929 -3.3870206 -0.5085279 0.8521161 2.8354897
-0.75431335 -0.42978132 -0.6270594 -3.1106026 -0.28236 -0.40865374 0.42991006 -0.27012438
0.664247 0.41249928 -4.891379 -0.023165412 2.7766936 0.124551415 -1.4939392 1.1757046
-2.1890466 3.2973666 -2.5833344 -0.47609013 -1.2248741 -0.6776297 -1.35763 -1.1424817

sequential_1/conv2d_4/BiasAdd/ReadVariableOp f4 [32]
00000000: b75f c43e 2342 30c0 6225 183f f720 cf3f
00000010: f38a f9bf 9e40 fc3e 912c eb3f 6af3 aa3f
00000020: e628 9ebe ce69 b7bf af11 22c0 7f6d b13e
00000030: 6f7f 173f 8322 963f 1249 0040 fcce 93bf
00000040: 0fc6 acbf e401 a3bf 44a3 87bf 57ba 25bf
00000050: 0674 0f3f 9391 90bf f67a f43e 016c 003f
00000060: 867e 91bf e41d bbbe d5ec 0ec0 105c 9abe
00000070: 7450 0abe 9722 2f40 ede7 b03e 3792 aa3f
0.38354275 -2.7540367 0.5943204 1.6181935 -1.9495529 0.4926805 1.8372976 1.3355534
-0.30890578 -1.4329164 -2.5323293 0.3465385 0.59178823 1.1729282 2.0044599 -1.1547542
-1.3497943 -1.2734952 -1.05967 -0.6473746 0.5603641 -1.1294426 0.47750062 0.501648
-1.1366737 -0.36546242 -2.233205 -0.30148363 -0.13507253 2.7364862 0.34551945 1.3325871

sequential_1/conv2d_3/BiasAdd/ReadVariableOp f4 [32]
00000000: de77 36bf d5c7 183c f3c5 e53e 5890 7ac0
00000010: d83e 193c fb8a bfbf 166f 823f 897b 80be
00000020: 690b 773f 4f15 04be d12d 15be fbfd 06c0
00000030: e48a fdbe d65a 0cbf bc75 703d 7f80 40c0
00000040: ec21 b5be cf1f 1ebf 06b0 4abf 3e4d a63c
00000050: 32a8 a5be 2355 d5be 8174 fabf 75a1 c2be
00000060: 8876 66c0 a503 89be da4b 05c0 1382 55bf
00000070: a88d adbe e04b e9be 72d9 0c3d 06f2 38bc
-0.7127665 0.009324987 0.44877586 -3.91506 0.009353362 -1.4964288 1.0190151 -0.2509425
0.96501786 -0.12898754 -0.14568259 -2.1092517 -0.49520028 -0.54826105 0.05870603 -3.0078428
-0.35377443 -0.61767286 -0.7917484 0.020300504 -0.32354885 -0.41666517 -1.9566804 -0.38013807
-3.6009846 -0.26760593 -2.0827546 -0.834016 -0.33897138 -0.455657 0.03438706 -0.011288172

sequential_1/conv2d_2/BiasAdd/ReadVariableOp f4 [16]
00000000: 77e3 1cbf e84b bdbe 6da3 f2bd dc03 9dbf
00000010: f4dd 01bf 2b85 08bf 85df f5be fd03 c6bf
00000020: 45d2 ccbe b662 f3be d034 bcbe c381 54bd
00000030: aaf8 82be 745d 45c0 8616 02bf 3f26 24bc
-0.61284584 -0.36971974 -0.11847577 -1.2266803 -0.507293 -0.533282 -0.48022094 -1.5469967
-0.40004173 -0.47536248 -0.36759043 -0.051881563 -0.2558034 -3.083829 -0.5081562 -0.010018884

sequential_1/dense_1/MatMul f4 [2, 32]
00000000: ab5b 2dbe bdf5 86bd ac98 093e a626 a7bd
00000010: 721b e8bc 24b5 2abe 2beb 963e f129 5c3d
00000020: f9b2 b2be b86e 2abe 4876 963e b666 133d
00000030: deb7 bf3e 6324 613e ff81 ef3d 77ff a93d
00000040: e170 a03e 5459 fe3d ab28 0e3e baf0 48be
00000050: 7484 1fb8 e606 67be 227e 17be 9237 db3d
00000060: e5ec 9fbd 5ae9 ef3e 551f 84be 314e dcbd
00000070: 7cb8 cbbd 3c09 cb3d 5b75 a53d 0a34 9dbe
00000080: 398e 64be f11f 893b e9e3 2c3c 14db 723d
00000090: 9064 80bd 8df1 91be 7fc3 c43e 0cbf a8bd
000000a0: 7dd2 8dbe a549 aabc 794c 743e 1267 ecbc
000000b0: b232 823e 550f 153e 9f26 453e 4e39 323e
000000c0: 3998 be3e 6168 5b3e 797e 9f3d c6c5 c7bd
000000d0: b7d3 00be 62ad 03be d509 71be 94e4 9839
000000e0: f9b7 04be 37c0 773e 93a1 b7be 978c f6bc
000000f0: 7f6d 7bbd c163 883d c237 b83c 11b0 86be
-0.169295 -0.065898396 0.13437146 -0.081616685 -0.0283334 -0.16670662 0.29476294 0.053750936
-0.3490217 -0.16643798 0.29387116 0.035986625 0.37444967 0.21986537 0.11694717 0.08300679
0.3133612 0.12419382 0.13882701 -0.1962308 -3.803191e-05 -0.22561225 -0.1479421 0.107039586
-0.07808856 0.4685772 -0.25805154 -0.10757101 -0.09947297 0.09913871 0.080790244 -0.30703765
-0.22319879 0.004184716 0.010552385 0.05929096 -0.06269181 -0.285046 0.38430402 -0.08239564
-0.27699652 -0.02078707 0.23857297 -0.028857742 0.25429302 0.1455663 0.19253014 0.17404673
0.37225512 0.21426536 0.077877946 -0.09754519 -0.12580763 -0.12859109 -0.23538907 0.00029162003
-0.12960805 0.24194418 -0.3586546 -0.030096335 -0.06138372 0.066596515 0.022487525 -0.26306203

sequential_1/conv2d_2/Conv2D f4 [16, 2, 2, 1]
00000000: 839d e33e 2b3f c8be 7692 83be 46a3 9a3e
00000010: 4743 28be b1be 053e 2414 c43e b053 babe
00000020: fbd4 de3d 2eba f43d 836c 15bd af99 e2bd
00000030: e99a bdbd d004 20be 118e 2e3d 4bd9 94bd
00000040: 5f8d fdbd 8326 73bd 1f09 5dbe 60dc 72be
00000050: 4874 5abe e930 903e ece8 84be b1ae b33e
00000060: ebd0 203d 7101 23bd d5cb 57be 58b3 07be
00000070: a4f2 463d 7944 733d a13e 3e3e 5aa8 593e
00000080: 8a99 af3d c087 973d b7e3 b9bd c386 06be
00000090: caa7 a13e 89f3 80be 1211 adbe 70a8 c63e
000000a0: 10ac f0bd 138b 4b3e fa38 3f3d 52d1 f83d
000000b0: 305f 543e c840 073e 569f bdbc c592 6d3d
000000c0: 7d8a d83e cab8 a1be dc04 5a3e 3ad0 07be
000000d0: d5bc 103e 329d 133e bb8d 4bbe d6a6 e8bd
000000e0: ddee 86bd 82e0 d3bd 1a91 be3d 8c17 e23d
000000f0: d11a f83d 5b90 6d3d e035 143e 5b8b 003e
0.4445611 -0.39110693 -0.25697678 0.30202693 -0.16431914 0.13061024 0.38296616 -0.36391973
0.108804666 0.119495735 -0.036480438 -0.11064469 -0.092580624 -0.15626836 0.042615954 -0.07268008
-0.1238048 -0.0593629 -0.2158551 -0.23716879 -0.2133342 0.28162315 -0.25958955 0.35094216
0.03926174 -0.039796297 -0.2107385 -0.13252008 0.048571244 0.059391472 0.18578579 0.21255627
0.08574207 0.07398939 -0.09076636 -0.13137345 0.31573325 -0.25185803 -0.33802086 0.38800383
-0.11751568 0.19877271 0.046685196 0.121493 0.20739436 0.13208306 -0.023147266 0.0580013
0.42293158 -0.31586295 0.21290916 -0.13263026 0.14134534 0.14415434 -0.19878285 -0.113599464
-0.06588528 -0.10345556 0.0930502 0.110396475 0.1211449 0.057998996 0.14473677 0.1255316

sequential_1/conv2d_3/Conv2D f4 [32, 2, 2, 16]
00000000: ea80 38bf 291d d0be a2fe c13e 00f3 0cc0
00000010: d262 a73e 725b bb3d af46 983e b17f 3dbe
00000020: a0ae b23e 7b21 fcbe 0731 d93e a993 7a3e
00000030: ae15 9c3b 3862 92be c622 63c0 ccd5 7c3e
00000040: 1875 83be 5bb4 ccbd f08f e03e aefd f8bf
00000050: 6eb6 943e 761b 9d3e f6c5 813e 0d9e 7e3e
00000060: ea11 273e 74bc 58be 7547 2c3f 2b12 223f
00000070: f810 75be 7bc5 e2bb c33b 71c0 8845 1e3e
00000080: 821f f2be 13d1 f2bd d927 d8bc 6a89 f93e
00000090: 4bca 7ebe 4d68 8f3d 0bcf f7be 8efb db3d
000000a0: c7c5 69bf 9829 693e 3baf 843e cdef ed3e
000000b0: 9005 863e 8373 95be 0ff7 f93e d3e9 cf3e
000000c0: 80dc 99bd 6d60 6a3c 7ab4 a63e b0ed d43e
000000d0: 83b7 09be 93e3 823d 1132 39bf f26d 05bf
000000e0: 4376 3bbf f337 24be 020e fabe 358b 123f
000000f0: 78a5 983d 243b 5cbe 154b a93f c4ed 973d
00000100: d0f3 373e 7dc9 99bd c17a 1c3f 12dc c6bf
00000110: 4b51 44be fdf9 0b3d b697 f63d b500 753e
00000120: b040 a23e 4e1f 2f3c c94a 88bd 97e5 a83e
00000130: 9b9e 17be cb68 033f cbdb c5be 2d4c 863e
00000140: 04c2 1dbe c120 90be de84 4abe 3322 e4bf
00000150: ddb2 28bf 2ec7 33be 7a26 45bf d233 563f
00000160: bfb1 bbbd d3c1 19be 69c7 0b3f c5ef 783d
00000170: c5d5 293e c27e cb3d 4fc9 89be af1d 923e
00000180: 974d 0a3e e0a9 ad3c 4ef7 1a3d 6eca 49bf
00000190: 70af 3fbe 0bea 7ebb 1198 893d 14be 2d3d
000001a0: 6c73 633d 3ee6 88be 2d58 d03d 78a7 92be
000001b0: d348 d5be 0806 0f3d 94ba a63d f0f3 f13e
000001c0: a8ef ea3e 4dc3 57be d0a4 acbd 89df aebf
000001d0: 0bc5 32be feca f43e 5ba4 cd3d a489 f13e
000001e0: 14e9 9cbc 1f52 413f dc14 993e e957 4fbe
000001f0: a09e 5ebd 457c 453d f1a8 2bbf ff9e 063f
00000200: 9a92 fe3d 50f5 23be 2907 97bf b5fb 083e
00000210: 31e5 b23e a2cf 23bf 6ef6 833e c242 febe
00000220: e9f4 9fbd a594 edbe cddc 99bf 1859 4bc0
00000230: 978b 92bc c294 21bf 2bb2 cdbd 1f03 2cc0
00000240: edca dfbe 2d46 1a3e 7ac1 a3bf 3350 473e
00000250: 1095 fdbd 2d56 16be 2a86 ae3e 1922 a1bf
00000260: e340 9a3e 98f2 6ebf e482 39c0 e717 84c0
00000270: 27b8 fcbe 00ee a1be c2da b1be 7350 71c0
00000280: 246f e5bd 82bb 583e 4551 433f a5cb 9b3e
00000290: 9024 2ebe dd31 0d3f 3b80 cb3e 9045 bfbf
000002a0: 39a1 d63e 2c84 53be 5cd4 a7bf 79dd 50bf
000002b0: dee5 de3d a8dc 223f d802 2b3f 0e11 60c0
000002c0: f4c2 fc3d 6cb1 013d 3af7 c53e d478 b23e
000002d0: 8f6a 4dbc d055 d93e 7a13 3bbd 3f5f 3ec0
000002e0: 4b1e 2d3f 958f 15be f7eb f7bf d39e e5bf
000002f0: 280c a0be 6d7a 863d 4ae4 633f 8ff3 5ec0
00000300: 3911 7dbe dcab aa3e e1ef bbbc ed92 cdbd
00000310: 1fe1 083e feb8 dd3e e001 66be 9eff f1be
00000320: 29c9 91bd 9e60 c8be cefa 6a3e f297 623d
00000330: df38 8bbd 763a 983b 1faf 203e f18d f0be
00000340: 3501 c73c 6aa5 3cbf aa65 3e3e 0550 233f
00000350: 4ca3 1e3e e50d ccbc 8b81 7abe 3dc0 50be
00000360: 747d 173e 35a4 9abd 9b20 62be ac31 313c
00000370: 4041 1abd 359e 8f3e 4cef 88bd c5a4 4abe
00000380: 9366 2dbe b1ba a0be 10c1 06bf 3276 b4bf
00000390: 5307 0fbf 85d0 89be b4ed 02c0 eb04 713f
000003a0: 8242 a2bf 3434 98be c1da 2b3d 46cf 75be
000003b0: ab73 9f3d 85f8 54bf 8ef1 2ebf 714a fc3d
000003c0: 19b9 2ebe d770 13bf 51fd e8be 44e6 9fbf
000003d0: 34b2 9abf 9559 623e 05c0 21c0 aaa6 bc3d
000003e0: a2b7 d3bf cda0 f83e ec55 5f3f 4ff5 503c
000003f0: b120 983d fdce 82bf 6dca f0be 9a90 643f
-0.7207171 -0.40647247 0.37889582 -2.2023315 0.3269258 0.09148301 0.29741427 -0.18505742
0.34898853 -0.49244294 0.42420217 0.2447039 0.0047633266 -0.2859056 -3.5489974 0.24690932
-0.25675273 -0.099953376 0.43859816 -1.9452417 0.29045433 0.30685014 0.25346345 0.24864979
0.16315427 -0.21165639 0.67296535 0.6330897 -0.23932254 -0.006920514 -3.7692726 0.15456212
-0.47289664 -0.11856284 -0.026386188 0.4873765 -0.24881856 0.07002316 -0.4840015 0.107413396
-0.9131741 0.22769773 0.2591494 0.46472016 0.2617612 -0.2918969 0.48821303 0.4060808
-0.0751276 0.014305216 0.32559568 0.4158759 -0.1344891 0.063910626 -0.7234202 -0.5212089
-0.7322733 -0.16036968 -0.48838812 0.57243663 0.07453436 -0.21506935 1.3226038 0.07418397
0.17964101 -0.07509134 0.6112481 -1.553591 -0.19171636 0.034173954 0.12040655 0.23926051
0.31689978 0.010688616 -0.06654889 0.32987663 -0.14806597 0.51331776 -0.3864425 0.26229993
-0.15406042 -0.2814999 -0.19777247 -1.7822937 -0.65897924 -0.1755645 -0.77011836 0.8367282
-0.09164762 -0.15015344 0.5460115 0.060775537 0.16585453 0.099362865 -0.269114 0.28538272
0.1350616 0.021199167 0.037833504 -0.7882451 -0.18719268 -0.0038896825 0.067184575 0.0424176
0.055529997 -0.2673816 0.10173068 -0.28643394 -0.41657123 0.03491786 0.08141056 0.47256422
0.45885968 -0.21070595 -0.08429873 -1.3661968 -0.17457978 0.4781112 0.10041114 0.47175324
-0.019154109 0.7551593 0.29898727 -0.20248379 -0.054350495 0.048214216 -0.6705466 0.5258636
0.12430306 -0.16011548 -1.179906 0.13377269 0.34940484 -0.639887 0.25773948 -0.49660307
-0.07810385 -0.4640247 -1.2020508 -3.1773129 -0.017888827 -0.6311761 -0.100437485 -2.6876905
-0.43709508 0.15065832 -1.2793419 0.19464187 -0.12381947 -0.14681311 0.34086734 -1.2588531
0.3012763 -0.9333892 -2.898614 -4.127918 -0.49359247 -0.31626892 -0.3473721 -3.7705352
-0.11202839 0.21165279 0.7629588 0.30428806 -0.17006135 0.5515421 0.3974627 -1.4943104
0.41919878 -0.20655888 -1.3111682 -0.8158794 0.108836874 0.63617945 0.66801214 -3.501041
0.12341872 0.031663343 0.3866518 0.3485781 -0.012537613 0.42448282 -0.04567287 -2.9745634
0.6762435 -0.14605553 -1.9368886 -1.7939094 -0.31259274 0.065663196 0.89020216 -3.4836156
-0.24713601 0.33334243 -0.022941532 -0.100377895 0.13367127 0.433052 -0.22461653 -0.47265333
-0.071184464 -0.39136213 0.22947237 0.055320688 -0.06797957 0.004645641 0.15691803 -0.46983293
0.024292568 -0.736899 0.1859347 0.63793975 0.1549198 -0.02490897 -0.24463479 -0.20385833
0.1479395 -0.07550851 -0.2208275 0.010815065 -0.037659883 0.2805039 -0.06686267 -0.19789417
-0.1693366 -0.31392434 -0.5263834 -1.409857 -0.5587055 -0.269169 -2.0457582 0.9414813
-1.2676547 -0.29727328 0.041956667 -0.2400485 0.07785734 -0.8319171 -0.68337333 0.12318886
-0.17062797 -0.57594055 -0.45505765 -1.2492146 -1.2085633 0.22104485 -2.527345 0.09211476
-1.6540415 0.4856018 0.8724048 0.012753799 0.074281104 -1.0219418 -0.4702944 0.89283144

sequential_1/conv2d_4/Conv2D f4 [32, 2, 2, 32]
00000000: 68bc 91be 9ecf 13be 3fd9 e9bf 2224 bfbf
00000010: c263 063e 78eb 6dbf 04f4 5e3f 01fd 10bf
00000020: 2d39 283f ffa4 a9bf 8037 09bf c425 58bf
00000030: 340c 233f c1b8 593e 43ae 9abf 7e44 e1bf
00000040: 2945 2ec0 bb2d f23e 2c27 d53d 53d5 29be
00000050: 8162 41c0 c32d a7bf 8df3 6cc0 d896 08c0
00000060: 0172 16c0 41b9 cebf 5300 7fc0 b909 c5bf
00000070: fd01 1fbf 0c24 91bd 486e 713c d784 97be
00000080: e128 2f3f 0f0a 053e a029 a43f 2728 f3bf
00000090: 4a41 053f cc7b 61bf 9616 d23e 45e9 343f
000000a0: 1c26 463c c9e4 bdbf 3ea1 c6bf 93d0 e6bf
000000b0: 4b69 153e d7d6 dc3c 9663 253f ac29 d3be
000000c0: a55f 353f df06 1b3f 54ce be3e 0058 9d3d
000000d0: 5417 43c0 230f e7be aeef a3be 2885 9cbe
000000e0: 13c3 fcbf 5378 fdbf e99c b9bf 3228 13be
000000f0: 0b45 943f d20d 96be 0a02 843e ce5f 863d
00000100: 15c4 d23d aaa9 393e c3f8 b0be 32a4 85bf
00000110: 70fc 5dbf 115c 53be f175 09be 497e 823e
00000120: 9338 66bf 3535 873f e088 4c3f b075 743e
00000130: 7c60 a9bf 79c9 13bd aba1 a8bd 245f bbbf
00000140: 4a1b 6dbe 3994 f83d 49af 403f 742f 13c0
00000150: 408b 1f3d 3435 ee3d 95e2 7fbf 4af2 a9be
00000160: eeef 15be 031c 0e3f 1d45 e43e 568f 4a3f
00000170: 439e 953e cfe4 47bf 45e0 08c0 b0f4 263d
00000180: 6506 d63e a375 eb3e b922 9d3d 4021 7abf
00000190: 8d21 e7bf 4720 3abf cbc8 91bf 4524 0c3f
000001a0: 2c6b 71bf 53d7 6d3e 548f 863f 97a0 22bf
000001b0: 9e59 913d 97e3 8b3e 1b3e ac3e 2cca 70bf
000001c0: 97a5 0b3f 560b 18bd 07e0 99be 2209 55c0
000001d0: 5372 a13f 7b3e 92bb 9fdd f7be eef4 c6bf
000001e0: 5a1e febe 0444 da3e f49a e2bc e1b9 9b3e
000001f0: 501f 343f 2a0c a4be 4170 bbbf 66b0 b1be
00000200: b3d6 903e 7830 3abf 9558 fabd 52dc 83bd
00000210: cdb6 57bc 03f9 543e c9df 43bf e09d c7bf
00000220: 5bec fdbd 67ff 16c0 57b7 b5bf 392c 3cbe
00000230: feaf 44c0 72eb bb3e fb02 56bf 3f6c b7be
00000240: fffd 043c f378 963e 2e2a 68bc f98f e63d
00000250: f9a8 d5be a616 94bf b73b 24bf 64bf 443e
00000260: a115 113f 1556 5cbf dc42 853e d471 9f3e
00000270: 9176 023e 9ffa 3ac0 4ba9 c03d fe8f c2bf
00000280: 66ec bebd 7604 8dbf e7af 21bf 7f02 99be
00000290: fe4d 3e3e 356b 5d3e ddf9 a3bf df87 bbbf
000002a0: 79f6 36be d7f3 3ec0 ed83 96bf ef05 01bd
000002b0: 3214 53c0 ba19 3dbe b8d4 43bf 2d16 15bd
000002c0: eda9 f13d 3fb4 1e3f a47b 7f3d 550c 6f3e
000002d0: f7af a9bf 30a2 a7be 9a48 58bf 7c96 ae3e
000002e0: 2f7c d93d ab61 3dbf 8e61 723e 393a c83e
000002f0: 693c 38bc 8ddb 40c0 dfe1 c73e b2f5 2ac0
00000300: 92ce 123f 7e99 c63e 4daa 8cbe 055f 393d
00000310: 32a9 983c 29a6 483e dd5d 96bf cc98 713f
00000320: f512 f6be 37f4 02bf 6216 4cbe a24d b83e
00000330: 374f 31bf 72e6 1dbf 5441 edbd 75e5 75be
00000340: e3b7 d3bf 0bb0 6cbe 0146 b0be 39d7 96be
00000350: b589 2abe 3996 f3be ef9c 6dbf 7115 73be
00000360: d49b ab3e adee c03e b400 f9bf 3157 17bf
00000370: 3881 f4bf f5e3 d83d bb26 39bf 48f0 4d3f
00000380: e6ee 1f3d f1bc 0d3f d023 60bf 4bf6 d1be
00000390: 6d99 123d df12 83bd 9805 a3bf cb95 90be
000003a0: a1ef 053e fa17 f4be d635 abbf b818 893f
000003b0: 7d2e 2bbf 9027 afbe ed45 68bf 9634 523e
000003c0: fd47 eabf 0b8c 5bbe 8399 c2be e67f c9bd
000003d0: 9f56 30be 0606 83bf 7571 a5bf a420 53bf
000003e0: 3bd5 a6bc 2a1d 2b3f 5758 08c0 82f2 92be
000003f0: 8ed7 24c0 c78c c03a f8ea d5bf 0889 3e3f
-0.28464055 -0.14434668 -1.8269423 -1.4932902 0.13123992 -0.9293742 0.8709109 -0.56636053
0.65712243 -1.3253478 -0.5360031 -0.84432626 0.63690495 0.21261884 -1.208443 -1.7599027
-2.7229712 0.47300515 0.10407862 -0.16585283 -3.0216372 -1.306084 -3.7023652 -2.1342068
-2.3507082 -1.6150285 -3.9843948 -1.5393592 -0.6211241 -0.070869535 0.014735766 -0.29593536
0.6842175 0.12992118 1.2825203 -1.8996629 0.5205275 -0.88079524 0.41032857 0.7066844
0.012094047 -1.4835445 -1.5517957 -1.8032402 0.14590947 0.026957912 0.6460508 -0.4124273
0.70849067 0.6055736 0.3726679 0.076828 -3.0482988 -0.45128736 -0.320188 -0.3057034
-1.9747032 -1.9802345 -1.450101 -0.14370802 1.158357 -0.2930742 0.25782806 0.06561242
0.10291306 0.18131128 -0.3456479 -1.0440733 -0.86713314 -0.2064059 -0.13423897 0.25486973
-0.89930075 1.0563112 0.79896355 0.23873019 -1.323257 -0.03608081 -0.08233961 -1.463841
-0.23154941 0.12137646 0.75267464 -2.2997713 0.03895116 0.116312414 -0.9995511 -0.33192664
-0.14642307 0.5551149 0.4458398 0.79124963 0.29222307 -0.7808351 -2.1386883 0.040760696
0.41801754 0.45988187 0.076726384 -0.97706985 -1.8057114 -0.727055 -1.1389402 0.5474284
-0.94304156 0.23226671 1.051249 -0.6352629 0.07097171 0.27322075 0.33641133 -0.9405849
0.54549545 -0.037120186 -0.30053732 -3.3286824 1.2613014 -0.0044630147 -0.4841127 -1.5543497
-0.4963253 0.42630017 -0.027661778 0.30415252 0.7036028 -0.3204053 -1.4643632 -0.34704894
0.28288803 -0.7273021 -0.12223927 -0.06438507 -0.013166142 0.20798115 -0.76513344 -1.5595055
-0.12398597 -2.3593385 -1.4196576 -0.18376245 -3.0732417 0.36703068 -0.835983 -0.35824773
0.008117198 0.29389152 -0.014170213 0.11257929 -0.41730478 -1.1569412 -0.6415362 0.19213635
0.5667363 -0.8606885 0.26027572 0.3114153 0.12740542 -2.9215467 0.0940729 -1.5200193
-0.09322433 -1.1016986 -0.6315903 -0.29884717 0.18584439 0.21622927 -1.2810627 -1.465084
-0.1786746 -2.9836328 -1.175901 -0.0314998 -3.2981076 -0.18466845 -0.7649646 -0.0363981
0.11799989 0.61993784 0.062373772 0.23344548 -1.3256825 -0.32740927 -0.8448578 0.34099185
0.10619389 -0.73977154 0.23670027 0.3910692 -0.011244872 -3.0134003 0.39039513 -2.671246
0.5734645 0.3878898 -0.2747368 0.045256633 0.018635366 0.19594635 -1.1747395 0.94373775
-0.48061338 -0.5115389 -0.19930413 0.3599673 -0.692615 -0.61679757 -0.11584726 -0.24013312
-1.6540493 -0.2311403 -0.3442841 -0.29461077 -0.16654094 -0.47575548 -0.92817587 -0.23738648
0.33517325 0.37682095 -1.945334 -0.5911742 -1.9101934 0.10590354 -0.72324723 0.80444765
0.03904619 0.55366427 -0.87554646 -0.4100822 0.03579085 -0.06400084 -1.2736082 -0.28239283
0.13079692 -0.47674543 -1.3375804 1.0710669 -0.6686781 -0.3420987 -0.907317 0.20527872
-1.8303219 -0.21440141 -0.38007745 -0.09838848 -0.17220543 -1.0236213 -1.2925249 -0.8247168
-0.020365348 0.66841376 -2.1303918 -0.28700644 -2.5756564 0.0014690392 -1.6712332 0.74427843

sequential_1/conv2d_5/Conv2D f4 [32, 2, 2, 32]
00000000: b0cc 5b3f 64ca 24bf 537e 1bbe 53ee b1be
00000010: 851e 873e 1bf4 053f 65da 88bf 9051 2d3f
00000020: e48c ebbf 6631 08be 4abf 143f 25b0 fe3e
00000030: 2f3e 4f3e 96bc 51bf 9086 8cbf 471d 81bf
00000040: 8480 c63d f2dd 1ebf 31c4 10be 3e68 a7bf
00000050: 8176 a03e b45e 10bf ed2c cb3e 231d 61be
00000060: 7726 70bf 9767 39bd 1039 9e3d 532f 87be
00000070: e129 d63e 5b32 11bf f068 85bf 7a70 043e
00000080: 3dbf 533d a3ed 54bd a389 32bd 16d4 73be
00000090: 5e9b 30bc 5749 d73e cb17 c7be 08f5 37bd
000000a0: 8cef fabf a648 d5bd 2d41 fa3d 25a9 8ebd
000000b0: 3fba b53d baa5 4f3e 9505 3abf 0874 62be
000000c0: 1dc5 133e 9894 fcbe ab37 883d f380 04be
000000d0: 780a 2f3e 877e 11be 3ee2 723e 8334 e63d
000000e0: 89df 16bf 2ed0 203d 9ca3 2cbe a467 933d
000000f0: 9d75 023f baa1 423c 0608 e7bc 71bc aebe
00000100: 38ba 8abf 245e 85bd f2aa 833e f920 143f
00000110: 8a69 09bf 7e01 b0be 44a0 943f bbed 053e
00000120: a7d0 d43d ab0d 32be 5060 143f 4fd0 d53d
00000130: fa80 ac3e a575 9abe e47a 86bf 2de0 5cbf
00000140: c980 0b3f e10c a3be 3ab4 b0bf df08 06c0
00000150: 6a09 83be acf8 2ac0 5702 f2bf 5fed a2bf
00000160: 10ba 393f b0fc 153f 872a 6dbe fed4 08be
00000170: 1d3f ab3e 1763 1ebd 99e1 17bf 668a 813e
00000180: 6f4b a0be 4d2d 89bd dbe5 0e3d 93c1 72bc
00000190: c7bf ddbe 9d10 bdbe 13ad 4d3e 8000 38be
000001a0: 2f00 e03c cbea ed3e 139c 803e 4d0c 983c
000001b0: 5217 b83e 3cee 7c3f c7a7 b7bf 901e 003f
000001c0: 5e2c a03d 36be 93bd 0a81 083f 4ac2 51bf
000001d0: debe f93d 5509 8ebf 45b6 06bf 07a2 14bf
000001e0: ab82 0a3e ae5e 3f3f ec9b e8be 96a2 46be
000001f0: 1a51 923e 5dbe bcbd 4bbc 803e 97a4 58bd
00000200: 06eb 36be 506d a23e 8bd1 26be 78b8 d1be
00000210: afe6 0dbf de0a dbbe 5265 18bf dab4 efbe
00000220: 7866 05bf eeb4 103e cba5 3cbe bf95 2bc0
00000230: cc9b dbbf 3bc2 03bf 752d 7d3f c115 123e
00000240: eca8 4bbf 8766 8f3d 95e4 743d 3a76 a63c
00000250: af68 13bf 5925 3bbe 8ee9 083f 5d23 a7bf
00000260: e267 0b3e c5fc a5bd 4d24 09bf 4f48 9b3d
00000270: 15fc 0abf 548f a3bf 5a2d a0bd 44cf 9ebe
00000280: ffd0 9e3f dff5 d43e 287b 043f 2f87 d9be
00000290: 1317 0bbf 3617 00bf 860a 82bf 1ce8 46bf
000002a0: bd63 01bf 4a46 983e 9cd0 33bd bca6 debf
000002b0: e877 e7be f37a b0bf d2fa d83e 1096 7639
000002c0: a0e1 fcbe 82e2 fd3c 669d 7a3d c91b b7be
000002d0: d581 25bf 9623 9fbd 85e3 ac3e a3a2 06c0
000002e0: 3037 cf3c 4065 07bf e061 bdbe 774d 663e
000002f0: 6ee1 49be 5c77 03c0 4177 07c0 2f4b 5abe
00000300: f3dd 9fbf 7971 89bf 8694 8f3c 226e e0bd
00000310: 6d43 3fbf c517 0cbf 53f9 5e3f 26c1 13be
00000320: 7bd3 163f 8163 ac3e 5ae8 883e 5cfc 14be
00000330: f3d4 78bf 62ed dfbd 2426 dcbf dc78 af3d
00000340: d6f6 663e 6254 81be b4d3 8bbe 7342 dabe
00000350: e84a 363e 37d9 23be dc1f 353f 5176 ed3e
00000360: 3827 babe bfad be3e ddf2 acbe 8c60 583e
00000370: 9ecf cc3c 0cdd 2bbe d83b 273e 2078 10be
00000380: 0b3a 513f 30e5 cfbf 7c4e 303f a048 003f
00000390: 69c9 5ebf d323 8a3e 35f0 46bf efd3 d1be
000003a0: 98cd c13e 5882 8fbf e569 913e 8e56 00bf
000003b0: 22a6 37bf f0c9 30bf 399c 7bbf 460c dabd
000003c0: 133e 51be 6032 08be 75c2 33be c4c8 d0bd
000003d0: 4d10 a9be eadb 17bf 8453 383f e01f 433e
000003e0: e6a0 3bbe 1b15 21bf d1a3 cbbd 4dca ab3e
000003f0: 840d 393f 96be 51be c3bb 06be 1b1f 033d
0.85859203 -0.64371324 -0.15184908 -0.3475214 0.26390472 0.523256 -1.0691649 0.6770258
-1.8402371 -0.13300094 0.58104384 0.49743763 0.20238565 -0.81928384 -1.0978565 -1.008706
0.09692481 -0.6205741 -0.14137341 -1.3078687 0.3134041 -0.56394506 0.39682713 -0.21983771
-0.9380869 -0.045264807 0.077257276 -0.26403293 0.41828826 -0.5671746 -1.0422649 0.12933531
0.05169605 -0.05198444 -0.04358829 -0.23811373 -0.01077923 0.4204814 -0.3888534 -0.044911414
-1.9604354 -0.10414247 0.122194625 -0.069658555 0.08873414 0.20278063 -0.7266477 -0.22114575
0.14430661 -0.49332118 0.06651243 -0.12939815 0.17093837 -0.14208423 0.23719117 0.112404846
-0.5893484 0.039261036 -0.16859287 0.07197502 0.50960714 0.011879379 -0.028202068 -0.34128144
-1.083808 -0.065120965 0.25716358 0.5786281 -0.53676665 -0.34376138 1.1611409 0.13078968
0.1039136 -0.17388026 0.5795946 0.10440122 0.3369215 -0.3016788 -1.0506253 -0.86279565
0.54493386 -0.31845763 -1.3805001 -2.0942914 -0.2559312 -2.6714277 -1.8906964 -1.272869
0.72549534 0.58588696 -0.23160754 -0.133625 0.3344659 -0.03866872 -0.5932861 0.25300902
-0.3130755 -0.066980936 0.034887176 -0.0148166595 -0.43310377 -0.36926737 0.20085554 -0.1796894
0.027343838 0.46468195 0.25119075 0.018560553 0.35955292 0.98801017 -1.4348077 0.50046635
0.07820962 -0.07214014 0.533219 -0.81937087 0.12194608 -1.1096598 -0.5262187 -0.58059734
0.13526408 0.74753845 -0.4543146 -0.19397959 0.285775 -0.092159964 0.25143656 -0.05289134
-0.17863092 0.31724024 -0.16290872 -0.4096105 -0.5543012 -0.42781729 -0.595296 -0.46817666
-0.5210948 0.14131519 -0.1842262 -2.6810148 -1.715692 -0.5146825 0.98897487 0.14266111
-0.7955463 0.070019774 0.059788305 0.020320047 -0.5758161 -0.18275966 0.53481376 -1.3057667
0.13613847 -0.081048526 -0.53571016 0.07582151 -0.54290897 -1.2778115 -0.0782115 -0.31017506
1.240753 0.41593835 0.5175042 -0.4248595 -0.54332083 -0.5003542 -1.0159461 -0.7769792
-0.50542814 0.29741126 -0.043900117 -1.7394633 -0.4520867 -1.3787521 0.4237886 0.00023516291
-0.49390888 0.030991796 0.061185263 -0.35763386 -0.6465123 -0.07770459 0.33767334 -2.1036766
0.02529487 -0.5288887 -0.36988735 0.22490488 -0.19714901 -2.05416 -2.1166537 -0.21317743
-1.2489609 -1.0737754 0.017526876 -0.10958506 -0.7471226 -0.5472377 0.8709919 -0.14429149
0.58916444 0.33669665 0.2673977 -0.14549392 -0.97199935 -0.10933949 -1.719914 0.08567974
0.22555098 -0.2525969 -0.27309954 -0.42628822 0.17802012 -0.1600083 0.7075174 0.4637933
-0.36358047 0.37241933 -0.3377904 0.2113058 0.025001343 -0.16783541 0.16331422 -0.14108324
0.8172919 -1.6241817 0.6886976 0.50110817 -0.8702608 0.26980457 -0.77710277 -0.40982005
0.37852168 -1.1211653 0.28401104 -0.5013207 -0.71737874 -0.6905813 -0.9828525 -0.10646872
-0.20433836 -0.13300467 -0.17554648 -0.10194543 -0.3302025 -0.5931994 0.72002435 0.19055128
-0.18323097 -0.6292283 -0.09943355 0.3355278 0.7228625 -0.20482859 -0.13157563 0.032012086
