Project/app/src/main/assets/converted_model_4layer_before.tflite (tflite, 46272 bytes, 10 tensors)

sequential/dense/BiasAdd/ReadVariableOp f4 [2]
000000 5b 00 38 3f 88 00 38 bf
       0.7187554 -0.7187581

sequential/conv2d/BiasAdd/ReadVariableOp f4 [16]
000000 67 b9 15 bf 40 80 93 be e2 ff ba be 1e 5f d1 bf
       -0.58486027 -0.28808784 -0.36523348 -1.6357152
000010 19 8b 2d bf 9f 06 e6 be 6f 16 d2 be 5a c1 cf be
       -0.6779037 -0.44926926 -0.4103274 -0.40577203
000020 97 85 88 bf cf 9a 3e bf a7 c1 9a be a7 40 20 bf
       -1.0665768 -0.7445497 -0.3022587 -0.6259865
000030 91 54 a3 be 25 ed d4 bf 69 97 8b bf 43 76 a5 c0
       -0.31900457 -1.6634871 -1.0905582 -5.1706862

sequential/conv2d_3/BiasAdd/ReadVariableOp f4 [32]
000000 15 c9 de be 49 79 01 3f 1a d4 74 bf 89 94 2d be
       -0.43512788 0.5057569 -0.9563614 -0.16951193
000010 0b ad b3 bf bb 2a 87 c0 6f 87 d8 bd c3 59 d5 3e
       -1.4037184 -4.223966 -0.10572707 0.41670045
000020 fe 80 b3 bf bd e5 d8 3e ad 4a 34 c0 e1 c6 72 c0
       -1.402374 0.42362776 -2.8170578 -3.7933886
000030 2f 00 93 bf 42 9e 6c bf 2b 5b 08 c0 c4 e8 26 3f
       -1.1484431 -0.9242898 -2.1305645 0.6519892
000040 c4 65 ec bf 46 9a b6 bf 50 d7 fc 3f b6 a6 93 be
       -1.8468556 -1.426583 1.9753208 -0.28838128
000050 2b 94 9a bf e4 7a 35 c0 08 5d 07 3f be be 22 3f
       -1.2076467 -2.8356256 0.5287633 0.635723
000060 18 87 40 3e b0 ff 7b c0 e9 94 1d 40 45 aa 3a bf
       0.18801534 -3.937481 2.4622138 -0.7291606
000070 10 ce cb bf a3 c3 a9 bf 1a 1b da bf 70 30 f0 be
       -1.592226 -1.3262829 -1.7039521 -0.46911955

sequential/conv2d_2/BiasAdd/ReadVariableOp f4 [32]
000000 d9 1c 92 be b5 78 62 be 32 f6 7d 3f ff bf 78 bf
       -0.28537634 -0.22116359 0.9920379 -0.9716796
000010 d0 f2 b9 3d 6f fb 3f bf 75 32 16 c0 e8 0c e4 be
       0.09079516 -0.7499303 -2.3468297 -0.44541097
000020 3e 26 cb 3d 73 f1 2d c0 14 2e 87 3f 79 fd a1 be
       0.099194035 -2.717862 1.0560937 -0.31638697
000030 e6 fd 38 3f 3a db ad bc c8 b3 c2 be fc 87 9a bf
       0.7226242 -0.0212227 -0.38027787 -1.2072749
000040 43 b6 7e bf f0 4c 0a c0 06 4b 1d 3f 80 69 f9 be
       -0.9949686 -2.160946 0.614426 -0.48713303
000050 d6 57 77 c0 95 10 1e c0 9b e1 bc bf ef fe 04 3f
       -3.864736 -2.469762 -1.4756349 0.519515
000060 c7 a9 55 3e 4e 9d 2b 3e 74 07 37 3d 65 0e a7 3f
       0.20865546 0.16759226 0.044684842 1.3051268
000070 c6 fe ac 3f c4 6c a1 bf 56 58 3f 3f 96 c0 c1 3d
       1.3515251 -1.2611318 0.74744165 0.09460561

sequential/conv2d_1/BiasAdd/ReadVariableOp f4 [32]
000000 31 d4 4c bf 0f a7 85 be 25 51 73 3e 69 be 94 bf
       -0.8001128 -0.26104018 0.23761423 -1.1620609
000010 a1 9c 45 be af f4 97 bf 69 d5 d7 bd 00 bf 10 c0
       -0.1929803 -1.1871547 -0.10538752 -2.2616577
000020 1f fe 99 bf 4a 26 a3 bd 28 d7 fc be 64 5c 5b bf
       -1.2030677 -0.079662874 -0.493829 -0.8568785
000030 2c 9e 20 bd c6 79 b8 be d7 aa b7 bd 93 c5 08 c0
       -0.039213344 -0.36030406 -0.08968132 -2.137059
000040 ae 0e 5e 3f 3e b4 7d bf 82 a7 0f c0 54 31 e3 be
       0.8674115 -0.9910315 -2.2445989 -0.44373572
000050 f1 ba 2e 3e 2f e3 59 bf e7 10 3c be 80 d0 b1 be
       0.170635 -0.8511228 -0.18365823 -0.34729385
000060 ad f9 06 bf d5 ba 2f bf a4 ae 82 bd 22 b9 8b bf
       -0.52724725 -0.6864446 -0.06380966 -1.0915873
000070 e7 95 b6 be ed c3 01 bf 41 7a 81 bf 60 d5 1c be
       -0.3566124 -0.50689584 -1.0115434 -0.15315771

sequential/dense/MatMul f4 [2, 32]
000000 a3 16 cf bd b7 83 64 be 67 39 30 be 84 86 80 be
       -0.101117395 -0.2231587 -0.17209397 -0.25102627
000010 d5 98 51 be d3 1d f5 3d 9b b5 aa bc 69 90 fd 3d
       -0.20468457 0.11968579 -0.02083855 0.1238106
000020 2a cd 30 3e 31 1a e0 bd 28 3a 46 be 1a 25 c6 3d
       0.17265764 -0.109424956 -0.19358122 0.09675045
000030 4e f8 e0 be b0 98 92 be cd a1 df bd 2e d7 c4 be
       -0.4393944 -0.28632116 -0.10919533 -0.3844542
000040 4e 5b be be eb bf 75 be 32 77 43 3d 29 4a 0b 3e
       -0.37179035 -0.23998992 0.047721095 0.13602509
000050 e1 3a 6b be e3 a8 28 be 88 c3 8d bd 45 b0 4d 3e
       -0.2297168 -0.16470675 -0.0692206 0.20086773
000060 68 61 fc bd 80 6f 87 3d c8 b0 8f 3e fc 09 57 be
       -0.12323266 0.06613064 0.2806456 -0.20999902
000070 12 7d 03 be b8 31 a2 3d 8f 73 0a bc 1f b7 dc 3c
       -0.1284068 0.07919639 -0.008450403 0.026942788
000080 a6 c3 bf 3d b3 6e a1 be f8 f7 84 be 7d 0c 27 be
       0.09363489 -0.3152977 -0.25970435 -0.16313358
000090 18 a9 0f be 6c 9d 09 3d a8 33 9b 3d 99 24 d3 3e
       -0.14029348 0.033597395 0.07578212 0.4123886
0000a0 52 74 6c 3e 22 a5 19 3b 7d 5d 84 be d1 60 11 3d
       0.23091248 0.0023444374 -0.25852576 0.035492722
0000b0 c9 1b b0 be c0 5a 5f be 59 61 4f be 4f 18 46 bd
       -0.34396198 -0.21811962 -0.20251979 -0.048363026
0000c0 c1 1e a4 be 64 c9 41 be 7d 9f 4b be 6c 8e 90 3e
       -0.32054713 -0.1892448 -0.19885059 0.2823366
0000d0 69 1e e6 bd 8c db 7f be 4f d5 ea 3d 54 c7 e2 3d
       -0.11236269 -0.24986094 0.11466467 0.11073175
0000e0 4e 11 71 bd 27 0a 1d 3e 20 2e 24 3e a6 52 0c be
       -0.058854394 0.15335904 0.1603322 -0.13703403
0000f0 65 ba 91 bd 26 5b 1d 3e 83 ba b5 3d f0 e5 9f bd
       -0.0711563 0.15366802 0.08873465 -0.07807529

sequential/conv2d/Conv2D f4 [16, 2, 2, 1]
000000 0b 53 28 3e e6 2b 08 3e ff c3 d4 3d c1 b0 c5 3d
       0.16437928 0.13297996 0.10388946 0.09652854
000010 8b 45 f9 3d 7a cb 0c 3e bd 91 33 3d 4e 81 f8 bc
       0.121714674 0.13749495 0.04384016 -0.030335095
000020 25 81 07 3e 20 72 63 3e ee f1 2b be cf 08 0a be
       0.13232858 0.22211504 -0.16791508 -0.13479923
000030 6c e3 83 3e b2 a6 93 bd 71 a1 ad be 68 66 2e 3e
       0.25759447 -0.07209529 -0.33912233 0.17031252
000040 75 45 96 be fd ce 9f 3e 27 60 ba be ec 3f ff 3e
       -0.29349867 0.31212607 -0.36401483 0.49853456
000050 cc 13 d7 3d 35 18 fe 3d 41 1f 26 be 0c 29 39 be
       0.10501823 0.12406961 -0.1622286 -0.18082064
000060 dc 20 8c 3e c3 6d 31 be 0b fa b4 3e fb bb 1c be
       0.2736882 -0.17327027 0.35347018 -0.15306084
000070 e7 17 d7 3e 3f 4e bb be bf 6a c6 be 45 6e fc 3e
       0.42010424 -0.36583135 -0.38753316 0.4930288
000080 d1 94 d0 3e 2c 98 b7 be 6f 35 46 3e 0d 3f bc bd
       0.40738538 -0.35858285 0.19356321 -0.091917135
000090 d1 45 00 3e 95 1d b3 3d 99 ce 6d 3e dc 83 3b 3e
       0.12526633 0.08745877 0.23223342 0.18312019
0000a0 44 97 5f 3e ef 7d 26 3e ef 85 75 3c d0 94 88 3c
       0.21835047 0.16258977 0.014985546 0.016672522
0000b0 e6 fb 36 3e af 5f 25 bc 5d a7 ff 3d f6 f4 89 3e
       0.17869529 -0.0100936135 0.12483094 0.26944703
0000c0 55 5d e9 3d 09 27 c3 3c b0 91 2f be 70 c1 3e be
       0.11394755 0.023822324 -0.17145419 -0.18628478
0000d0 1b 3d ce bd 5e f7 38 be ae 1b 5c be 4b b2 48 be
       -0.10070249 -0.18063113 -0.21494934 -0.19599263
0000e0 b9 18 1d bd a1 2b 1a be e2 15 11 be 96 ee 33 be
       -0.038353655 -0.15055706 -0.14168504 -0.17571482
0000f0 dd 75 87 3e 06 cc 3c 3d 13 ab a8 3d 75 b1 c8 3e
       0.2645711 0.04609301 0.08235755 0.3919789

sequential/conv2d_1/Conv2D f4 [32, 2, 2, 16]
000000 4c 8f da be 94 f8 da be 24 f6 89 be 24 2c 4a be
       -0.42687452 -0.42767775 -0.26945603 -0.19743401
000010 de 08 33 be 3b 45 46 be b9 bb 67 bd 6e ff 86 3e
       -0.17483851 -0.19362347 -0.05657551 0.26366752
000020 e1 3b db bd 75 1d 45 bd 88 64 05 bf f2 0f 74 3b
       -0.1070478 -0.048123796 -0.52106524 0.003724095
000030 d2 6a 5d 3e 4f 88 cc 3d 02 da 48 3e a0 15 09 be
       0.2162278 0.09986936 0.19614413 -0.13387156
000040 de 53 25 bf a4 b3 80 be 44 80 a4 be 8b 4f c0 be
       -0.64581096 -0.25137055 -0.3212911 -0.37560686
000050 72 65 00 3e 81 37 58 be 7b f5 63 be e1 d6 9a be
       0.12538698 -0.21114923 -0.22261612 -0.30242065
000060 53 ef c0 be 18 f4 fb be 1b 23 aa be f0 d3 97 be
       -0.3768259 -0.49209666 -0.33229908 -0.29653883
000070 cb ed 82 bc a1 72 93 3c 67 c8 1d 3e c1 5c 93 be
       -0.01598253 0.017998995 0.15408479 -0.28781703
000080 ae 48 37 3f 33 37 8e 3e a8 d0 53 3f 8d 12 40 3f
       0.71595275 0.2777649 0.8274026 0.75028306
000090 d8 4a 49 3e 89 84 22 3f f8 3e 03 3f 44 89 a5 bd
       0.19657457 0.6348348 0.5126796 -0.08082822
0000a0 65 fb b8 3d d5 1a 8b 3e fd 4e 14 3f 4d 9a 3c bd
       0.09032325 0.2716891 0.57933027 -0.04604559
0000b0 3f 19 9f 3e 7a 08 b2 be dc 70 a2 be 4e 92 11 3e
       0.3107395 -0.34772092 -0.3172673 0.14215967
0000c0 1c 21 2e 3f a7 ea c3 3e dc 16 fb 3c ee 9d 6b be
       0.6801927 0.38264963 0.030650549 -0.23009464
0000d0 96 3a aa 3d 76 91 37 3e 6b 8d b7 3e 0a 5c f5 3d
       0.08311956 0.17926583 0.3585008 0.11980446
0000e0 ce 8f 88 3e 82 f2 16 3e e2 17 01 3f 50 84 92 3e
       0.26672214 0.14740947 0.5042707 0.2861657
0000f0 88 1f ef be e6 72 ac be fe 4b 07 bf f0 0c 99 bd
       -0.46703744 -0.3368141 -0.5285033 -0.07473171
000100 55 b6 aa 3e 66 bd a0 3e f2 94 59 3e 02 c2 b8 3e
       0.33342233 0.313945 0.21248224 0.36085516
000110 46 8f da bc 05 4f 93 3e 5d b3 d1 3e 01 42 64 bd
       -0.026679646 0.28771225 0.40957156 -0.05572701
000120 28 62 75 3e 8f c6 e1 3e 29 5e 01 3f 6e 8e b6 be
       0.23963225 0.440968 0.505343 -0.3565554
000130 36 2b ba 3e a8 31 eb 3c 08 49 11 b9 52 71 b6 3e
       0.36361092 0.028710201 -0.00013855484 0.35633332
000140 dd 13 57 3e b1 62 08 3c de b8 58 3e ab 26 56 3e
       0.21003671 0.008324311 0.21164271 0.20913188
000150 d6 d4 d6 3e 30 dc 88 3e 30 95 1a be ef 63 12 be
       0.41959256 0.2673049 -0.15095973 -0.14295934
000160 ee a8 ac 3e b6 8c cc 3d 81 bc b2 3c 7e df 65 3e
       0.33722633 0.09987776 0.021818401 0.22448537
000170 d2 d1 fe 3d fa b9 38 3e 58 28 45 3d 75 fb d9 3e
       0.12442364 0.18039694 0.048134178 0.4257466
000180 24 13 30 bf 59 0b d0 be 17 4a 36 be 6c 09 7b be
       -0.68779206 -0.40633658 -0.178017 -0.24515313
000190 f2 f0 9e be 53 73 83 be 67 76 c6 be 08 ea 87 3c
       -0.31043202 -0.25673923 -0.3876221 0.016591087
0001a0 2a 83 36 be 41 a7 f3 be b8 dc fe be 4e d0 0c be
       -0.17823473 -0.47588542 -0.4977777 -0.13751337
0001b0 66 5a fa be f3 3c 49 c0 4c c3 99 c0 6c 79 22 be
       -0.48897094 -3.144345 -4.80509 -0.15866631
0001c0 97 80 35 bf fc e2 35 bf 3a 12 12 bf 5d ed d4 be
       -0.7089934 -0.71049476 -0.5705906 -0.41587344
0001d0 3c 97 a3 be 92 66 65 3e 7c 2b 05 bf 97 72 be 3d
       -0.3195132 0.22402409 -0.52019477 0.092992
0001e0 47 b2 93 be 77 42 84 be c0 ba 06 bf 56 ad 61 bd
       -0.28846952 -0.2583196 -0.5262871 -0.055096947
0001f0 08 93 88 be 11 5d 52 c0 3c 5d 8e c0 33 9a 1f 3d
       -0.26674676 -3.2869303 -4.448881 0.038965415
000200 f6 90 0a c0 96 a0 33 c0 dd c8 36 be c3 96 22 be
       -2.1650977 -2.8066764 -0.17850061 -0.15877824
000210 ee 2e ac bf 9b b3 e4 3d d7 df 27 c0 f0 a7 93 be
       -1.3451822 0.111670695 -2.623037 -0.28839064
000220 ed 04 aa bf 56 7a d0 bf 04 4c 3b c0 82 a9 23 c0
       -1.3282753 -1.6287334 -2.9265146 -2.557221
000230 8c 39 1d 3e 6e 48 02 3f a4 cf 50 3e 14 bb f6 bf
       0.15353984 0.5089177 0.20391709 -1.9275842
000240 f2 5c 1f c0 cf 90 1a c0 61 aa fd be 13 c1 ca be
       -2.490048 -2.4150884 -0.4954405 -0.3960043
000250 3f cd af bf 71 c5 20 3e 71 94 4f c0 dc 46 be bf
       -1.3734511 0.15700318 -3.2434351 -1.4865375
000260 0c 86 d8 be b6 74 2f c0 1f cd 53 c0 cf f1 64 c0
       -0.4228977 -2.7414985 -3.3093946 -3.5772588
000270 28 42 4b 3e 7f e5 70 3e 2e a9 ad 3e 8f 09 5a c0
       0.19849455 0.23525046 0.33918136 -3.4068334
000280 a3 da 6c be a7 26 08 c0 02 d8 04 bf 30 e8 ef be
       -0.23130278 -2.1273592 -0.518921 -0.46856833
000290 21 8e 20 be d3 77 13 3d 02 28 c8 be ee f9 1a 3e
       -0.15679218 0.036002945 -0.39093024 0.15134403
0002a0 46 2f 4b be 0a 13 02 3e 15 be ed bf fc f4 0c 3e
       -0.19842252 0.12702575 -1.8573633 0.13765329
0002b0 4f 37 83 3e 2a c3 51 3e c3 f2 d7 3b 41 5b 7a 3f
       0.25628135 0.20484605 0.0065902187 0.9779549
0002c0 7d 22 b6 3e 2c a4 0e c0 8a 70 1e bf e3 cb d0 be
       0.35573187 -2.2287703 -0.6189047 -0.40780553
0002d0 0b 5a e1 3e c5 63 25 be ce bd 30 bd 0d 79 07 3f
       0.4401401 -0.1615134 -0.04314976 0.52919084
0002e0 9e ec 6b 3d e3 8a 13 3e 04 9e d6 bf e9 1c 10 3f
       0.057598703 0.1440845 -1.6766973 0.56294113
0002f0 4a 75 d6 be 1e 49 d3 3e d6 c3 81 3e 7e fb a5 3f
       -0.4188636 0.4126672 0.25344723 1.2967374
000300 15 83 00 be e1 13 fc 3d 39 f3 21 3e f6 8b ab 3d
       -0.12550004 0.12308479 0.15815438 0.08376305
000310 f9 ca f8 3b 29 7d 57 3e c2 f7 99 be ab ea 74 3c
       0.0075925556 0.21043839 -0.30071837 0.014948527
000320 ea 3e 38 be 20 da d5 be 5a 7c b4 bc 6a 48 17 bf
       -0.1799275 -0.4176798 -0.022031952 -0.5909487
000330 de 6f d7 3c 56 94 90 3f 60 b0 0b be 8f ea 0e bf
       0.02629846 1.1295269 -0.136415 -0.5582666
000340 64 e1 30 be ed 9b b5 bd 91 2c 03 3d 35 9e 88 3d
       -0.1727348 -0.08867631 0.032024924 0.066708006
000350 21 63 b5 bc ca 8e 5c 3d f1 3a 0c bf b3 46 88 3e
       -0.022141995 0.05384711 -0.5477744 0.2661644
000360 f4 50 75 3c d3 90 02 bf 29 4b c3 3c 56 46 ea be
       0.014972914 -0.51002234 0.02383955 -0.45756787
000370 36 9d 66 3e f8 c9 16 be 5d d3 83 3e 52 3c d4 be
       0.22520909 -0.14725482 0.25747195 -0.4145227
000380 12 55 dd be 3c a9 82 bf 58 0a 98 bd 33 ff 5c bf
       -0.43228966 -1.0207896 -0.07423848 -0.86326903
000390 cf 6b 53 be 48 3a 18 be c0 e6 0f be f1 e5 03 3e
       -0.20646594 -0.14865983 -0.14052868 0.12880684
0003a0 08 f7 66 3e d0 0f 4f bc 45 f4 a1 bf c7 12 d1 3d
       0.22555172 -0.012638047 -1.265267 0.102086596
0003b0 2f d1 1f 3e 47 45 91 be 22 cf 28 bf 05 cf d6 3d
       0.15607141 -0.28373167 -0.6594106 0.104887046
0003c0 ee b0 3d bf 64 2e 32 bf 50 90 64 be 96 b9 33 bf
       -0.740981 -0.69602036 -0.22320676 -0.70205057
0003d0 5d 84 c9 be b7 e5 8d bd af 36 44 be 60 7f 98 bd
       -0.39358798 -0.0692858 -0.19161485 -0.0744617
0003e0 52 84 c6 bd fa 5d 6a be 89 48 6e bf 27 4a 13 bc
       -0.09693207 -0.22887412 -0.9307943 -0.008989847
0003f0 52 4a 77 3d f9 99 52 be 12 c9 77 be 84 6b 41 3e
       0.06037361 -0.20566548 -0.24197796 0.1888867

sequential/conv2d_2/Conv2D f4 [32, 2, 2, 32]
000000 62 ab 35 3e 75 52 86 3d d3 3e c9 bf 33 f0 a2 bf
       0.17741159 0.06558696 -1.5722297 -1.2729553
000010 c4 3b 92 3e f3 26 b7 bd 81 dd 8d bf 1b 66 20 3d
       0.28561223 -0.08942976 -1.1083223 0.039159875
000020 1d ca cf 3e 70 79 84 3e e5 49 d8 be 86 99 28 3e
       0.40583888 0.258739 -0.42243877 0.16464815
000030 cc bc 2b be 0a 5a 8d 3e 82 b8 2e 3e fc aa 0f bf
       -0.16771239 0.27607757 0.17062572 -0.56120276
000040 05 fb 4c bf 36 5b c4 be af 5e e8 bf d0 0a 13 3f
       -0.80070525 -0.38350838 -1.8153895 0.57438374
000050 9f 2d 19 be d9 4f a5 3b e9 e1 ad be 4f 7c 2b 3e
       -0.1495881 0.005044919 -0.33961418 0.16746639
000060 e0 df 5a 3d 5d 0e a5 bf 0f ca 77 be e2 5b a8 be
       0.05343616 -1.2895008 -0.24198173 -0.328826
000070 c1 a0 0a be d0 7d 05 3f a4 e2 a4 3e ca 5d 20 3f
       -0.13537885 0.521451 0.32204163 0.6264311
000080 65 99 3b be a1 85 21 be 3d 38 8b bf 21 f5 4c bf
       -0.18320234 -0.15773632 -1.0876538 -0.8006154
000090 ad 7b 8a 3e 8f 59 9b 3e 3b 2f 35 bf 51 12 15 be
       0.27047482 0.30341765 -0.7077519 -0.14557768
0000a0 a2 66 a5 bd 3f f6 92 be 0a f4 04 bf 1a 97 ce 3e
       -0.08076216 -0.28703496 -0.51934874 0.40349656
0000b0 5b 12 b6 3e 28 c8 07 3f 2f 17 8f 3f 5b 1a b5 be
       0.3556088 0.5303979 1.117895 -0.3537167
0000c0 f5 2e 1e bf 6c a0 25 bf 65 c6 ea bf 58 a8 76 3d
       -0.617904 -0.6469791 -1.8341795 0.06021914
0000d0 37 68 10 3f 65 29 35 3e 79 a4 c9 be 97 ec be 3e
       0.5640902 0.17691572 -0.39383295 0.3728988
0000e0 04 23 92 bd 95 e6 89 bf 8b d9 08 be fe dc a1 bd
       -0.07135585 -1.0773493 -0.13364236 -0.07903479
0000f0 a4 38 b1 3e 6d 8a 56 3f 16 a2 99 3e 77 43 b9 3d
       0.34613526 0.8380497 0.30006474 0.09046071
000100 03 c0 f1 3e 6e 7c ca be cf f6 f2 3e f1 14 d8 bf
       0.47216806 -0.39548057 0.47453925 -1.6881391
000110 6e 83 ef be 56 e5 60 3e 51 c1 75 bf 01 48 f2 be
       -0.4677996 0.21962485 -0.959981 -0.4732056
000120 1d 01 8a 3f b7 57 fe be 06 c3 8f 3e 1a 58 36 bc
       1.078159 -0.49676296 0.2807848 -0.0111294035
000130 a9 e3 c4 be cc ce 19 be 16 5f d7 be f6 dd 2a 3f
       -0.3845494 -0.15020293 -0.42064732 0.66744936
000140 e5 01 ed bf 0b f8 90 bc 8f 93 79 3f cf 3f bf bf
       -1.8516203 -0.017696401 0.9749078 -1.4941348
000150 cc 1c af 3c f2 3f 07 3f 51 36 c5 bd 41 ea 94 be
       0.021376036 0.5283195 -0.09629501 -0.29084972
000160 75 b3 9a bf 2a 79 4e be 43 81 30 be f8 04 0f 3f
       -1.2086016 -0.20163408 -0.1723681 0.55866957
000170 14 93 5f bf 2f b5 8e 3f cb b0 ef be 36 c7 ef bf
       -0.873338 1.1149043 -0.4681457 -1.8732669
000180 23 d1 0c 3f 58 41 18 be 75 ba 6e be d2 38 f6 bf
       0.5500662 -0.14868677 -0.23313315 -1.923609
000190 4a 86 1a 3d 86 99 60 be f6 03 fd be d1 32 b2 be
       0.037725724 -0.21933565 -0.49417084 -0.34804395
0001a0 16 af 7a 3f 36 2a e6 be b4 d0 e6 3e 02 39 73 3e
       0.9792341 -0.4495408 0.45081103 0.23752216
0001b0 4c 67 18 bf 4e da bd be 15 8f 17 bf 18 c1 89 3e
       -0.5953262 -0.37080616 -0.592027 0.2690513
0001c0 e0 f2 18 c0 4e ab 8d bc fa b8 f6 3e be c9 a2 3e
       -2.389824 -0.017293599 0.48188 0.31794542
0001d0 86 c7 99 be aa aa 8d 3f 22 f9 0f 3e ad 90 2e 3e
       -0.30035037 1.1067708 0.1405988 0.17047377
0001e0 e7 2a fb be 05 d1 3d bf ba e6 47 bf 0a 96 43 3f
       -0.4905617 -0.74147063 -0.78086436 0.76400816
0001f0 27 de bb bf 18 67 b7 3f d2 9f c6 be 31 44 cb bf
       -1.467717 1.4328337 -0.38793808 -1.5880185
000200 d5 01 ef bf 34 29 b5 3e cb 70 0a 3f 19 e9 93 be
       -1.8672434 0.35382998 0.5407836 -0.28888777
000210 ae 2c 2e bf e0 71 e0 be 5d 7a 98 3e 36 2c 64 bf
       -0.68036926 -0.4383688 0.29780856 -0.8912996
000220 fb 3f 9a bf fa a5 20 bf d7 83 a7 bf 5f de 5e 3e
       -1.2050775 -0.6275326 -1.3087109 0.21764515
000230 fc 01 57 3e 33 a6 6a bf ed e7 cb be 2e 44 88 be
       0.2099685 -0.9165985 -0.39825383 -0.26614517
000240 28 69 61 bf 0b 2f 5c bf 0c d5 93 3e dd 4f aa 3f
       -0.8805108 -0.8600928 0.2887348 1.3305622
000250 76 8e 97 be ae b4 9e 3c 3c d2 3c bf 1d 40 bf bf
       -0.29600877 0.019373264 -0.7375829 -1.4941441
000260 8a 54 cd 3d 8c 59 67 3f 6c 6a 02 c0 d6 c8 48 bf
       0.1002589 0.9037101 -2.0377455 -0.7843145
000270 1a e8 4d 3f ed 1e bc 3d 39 6d cf 3e 7e cb 08 3d
       0.80432284 0.09185586 0.40513018 0.03339719
000280 1a 5b 79 bf 9f c2 b3 3e 61 3c 6d 3f 7e 23 1a bd
       -0.97404635 0.35109422 0.92670256 -0.037631504
000290 ee 71 3c 3e 43 f6 8a 3d 88 2f bb 3d 98 1f 94 bf
       0.18402836 0.06785252 0.09139925 -1.1572142
0002a0 2a 3b 3b bf fd 09 5f bf 96 f3 9c bf e4 6a b6 3e
       -0.7313715 -0.87124616 -1.2261837 0.35628426
0002b0 cf f0 20 3e 8e 60 83 bf 37 3c 4e bf de 13 6a bf
       0.15716861 -1.0263841 -0.8056063 -0.91436565
0002c0 70 95 e5 be 44 48 f5 be af c0 97 3e e3 e7 64 3e
       -0.44840574 -0.47906697 0.29639193 0.22354083
0002d0 7c 68 cb 3e c0 01 54 3e ad f8 4b 3f 67 ea 88 bf
       0.39728153 0.20703793 0.79676324 -1.0696534
0002e0 81 05 a5 3e a1 88 c3 bd 21 e6 ae bf b1 0e 68 bf
       0.32230762 -0.09547544 -1.366398 -0.9064742
0002f0 ee ae 66 bf fb 6a bb be 00 19 4a bf 4d 8f e7 be
       -0.9011067 -0.36605057 -0.78944397 -0.45226517
000300 8f d8 69 be cf f1 98 bd 5c e9 85 bd 9d 74 12 bd
       -0.22836517 -0.07467996 -0.065386504 -0.035755742
000310 89 c2 9f be c4 5a 11 bf 11 9c cb 3c a8 3a 34 bf
       -0.31203106 -0.5677912 0.024854692 -0.70402
000320 f4 82 5a bf 58 d4 12 3e 6e 62 c8 3e 72 d3 13 bf
       -0.8535607 0.14338815 0.39137596 -0.57744515
000330 96 30 a4 3e a7 29 07 bf 1e fa 09 3e 0d 46 8f bc
       0.32068318 -0.5279793 0.13474318 -0.017489458
000340 45 1f 36 bf 3d 40 e0 bd eb 0f 81 3f 7e d7 ed 3f
       -0.71141464 -0.109497525 1.0082983 1.8581388
000350 12 74 2f be fc f8 bc bd dd c5 db be 86 78 a2 bd
       -0.17134121 -0.092271775 -0.42924395 -0.07933144
000360 e3 8d 56 3e 9e 4f 38 3f 17 e0 04 c0 07 3f 85 bf
       0.20952563 0.71996486 -2.0761774 -1.040986
000370 68 72 da be 2a 58 78 bf 8c 34 1e bf ac 4b 16 bf
       -0.4266541 -0.9700953 -0.6179893 -0.58709216
000380 29 5b 36 bf 00 b4 a3 bf b9 da 45 bd 67 28 3c 3e
       -0.7123285 -1.2789307 -0.048304293 0.18374787
000390 b4 b1 22 bf cc 87 28 be 4e f0 27 3e d5 79 a2 be
       -0.63552403 -0.16458052 0.16400263 -0.31733575
0003a0 4d 74 40 bf a0 ba a3 bf b0 01 15 bf f0 c1 f8 be
       -0.7517746 -1.2791328 -0.582057 -0.48585463
0003b0 8c dc f2 3e 3a 8f 5f bf 11 d9 cb be 20 80 01 bf
       0.4743389 -0.8732792 -0.39814046 -0.5058613
0003c0 c5 97 e6 be fc ca 90 bf 9b 5c 55 3f 6c 12 60 bf
       -0.45037666 -1.1311946 0.8334443 -0.8752811
0003d0 59 21 94 3b bc 7b 06 3f e6 cd 1b 3f ee 47 e3 be
       0.004520577 0.52532554 0.6086105 -0.44390815
0003e0 5a 83 13 3f f4 3a 16 bf 38 42 ca 3d 91 10 47 bd
       0.576223 -0.58683705 0.098759115 -0.048599783
0003f0 60 d0 10 bf a0 85 18 c0 b5 ed ab bf 9d 19 29 bf
       -0.56567955 -2.3831558 -1.3431917 -0.6605471

sequential/conv2d_3/Conv2D f4 [32, 2, 2, 32]
000000 79 67 ec be 69 d3 1c bf 49 f7 1e 3f 69 a7 60 be
       -0.46172693 -0.61260086 0.6209608 -0.21938862
000010 14 53 7b 3e f4 3c 16 bf 53 24 71 be 7b ed 20 3f
       0.2454341 -0.5868676 -0.23549013 0.62862366
000020 f0 15 1a bf 57 2d f0 be 7f 66 d2 3d f5 de 07 3d
       -0.60189724 -0.46909592 0.10273456 0.033171613
000030 c2 7a cc bd 64 30 67 3f f0 2a 49 3f 5c 3b c9 be
       -0.09984352 0.90308213 0.7858114 -0.393031
000040 81 04 90 3e 14 99 93 bf a5 df 48 bc 89 76 54 be
       0.28128436 -1.1531091 -0.012260352 -0.20748343
000050 b5 40 37 be 38 4f 4d be 4c ec 3c bd a1 4b c0 3e
       -0.17895778 -0.20049751 -0.046123788 0.375577
000060 24 93 76 bf 15 31 da 3e b9 f8 b2 bf 70 a2 f4 bf
       -0.9631827 0.42615572 -1.3982154 -1.9112072
000070 fa 15 22 bf d1 cc 1c 3e 12 c1 fe be d8 b0 17 bf
       -0.63314784 0.15312506 -0.49756676 -0.5925422
000080 4b 65 99 be 0b 6b 02 be e3 fa 84 be dc 5d ef bd
       -0.29960093 -0.12736146 -0.2597266 -0.11687824
000090 b7 16 bd be 7f 9c 2d be ab e4 8a be 94 43 c4 be
       -0.36931393 -0.1695423 -0.27127585 -0.38332808
0000a0 f3 bd 64 bf 84 a7 41 bf 18 ca 57 be 44 2d dc 3e
       -0.8935234 -0.75646234 -0.21073186 0.43003285
0000b0 3f e3 9a 3f ba 08 fa be 09 c5 94 3e 0e d2 10 bf
       1.21006 -0.48834783 0.29056576 -0.5657052
0000c0 fc 14 90 be 91 c8 71 bf 8c 58 40 3d 95 b4 34 3e
       -0.2814101 -0.94446665 0.046959445 0.17647012
0000d0 92 d9 0b bf 06 70 31 be 21 c3 dc 3e 9f 74 9c be
       -0.5462886 -0.1732789 0.43117622 -0.30557725
0000e0 c2 5d 17 bf d2 f7 f4 bd 21 3d ca bf 25 a2 70 bf
       -0.5912744 -0.119613305 -1.5799905 -0.9399741
0000f0 d9 e8 05 bf a1 5b 89 3d 90 31 5b bf 8d 41 29 bf
       -0.5230842 0.0670693 -0.856225 -0.6611565
000100 62 95 05 bf 58 08 10 bf 15 f1 3d 3d c4 cd 8b 3d
       -0.52181065 -0.5626273 0.046372492 0.06826356
000110 c2 9c 01 3f a8 ae 40 be a5 72 fe be 5c e0 16 3f
       0.5062982 -0.18816626 -0.49696842 0.58936095
000120 1f 32 8b 3f 8c aa 1d 3f 9a 23 ca be b9 7e 9f be
       1.0874671 0.6158836 -0.39480287 -0.3115137
000130 52 90 fc 3a 5e b2 c7 bd d2 9a 13 ba 3b bf ac be
       0.0019269085 -0.09750818 -0.0005630675 -0.33739647
000140 83 c3 18 bc 8b 54 c0 be 1e fc 15 3f d5 87 69 bf
       -0.009323957 -0.375645 0.58587825 -0.9122289
000150 2c 86 88 3e 86 96 42 be 49 5c 1f bf 25 f3 ed 3e
       0.26664865 -0.19002733 -0.6225019 0.46474567
000160 b8 25 70 3e 73 12 45 3e 76 6d 06 3e 0b af e2 bf
       0.23451889 0.19245319 0.13127694 -1.7709669
000170 34 f4 ab bf b2 ca 7c bf 52 77 81 bc 40 2d 6e bd
       -1.34339 -0.9874679 -0.015803967 -0.058148623
000180 ca fc 8c bf 60 2b de be 07 a8 38 be 6f 2b 63 3d
       -1.1014645 -0.43392467 -0.18032847 0.055461343
000190 f8 e5 c0 3e cb 59 d0 3e 03 18 8f bf ec e7 69 be
       0.37675452 0.40693507 -1.1179203 -0.22842377
0001a0 5e d8 59 3e b2 af 60 3f d4 36 85 bf 47 5b c5 bf
       0.21273944 0.8776809 -1.0407357 -1.5418481
0001b0 9c 7e 2f be 7a 9c 68 bc 12 7d fe be eb 38 1e 3e
       -0.17138141 -0.014197463 -0.49704796 0.154514
0001c0 e6 47 14 bf 77 97 2e bf 93 88 4b 3f c4 d7 88 bf
       -0.5792221 -0.68199867 0.7950527 -1.0690846
0001d0 44 0d 05 3f 21 e1 8b bf 0a 00 a1 bf bb 14 43 3f
       0.51973367 -1.0928079 -1.2578137 0.7620351
0001e0 8b 9d 95 3d de 13 22 3d e8 72 df be 58 e8 da be
       0.073054396 0.039569728 -0.43642354 -0.4275539
0001f0 52 9a cc be 84 30 85 bf cb 2f f4 bd ae 36 84 3b
       -0.39961487 -1.0405431 -0.11923178 0.0040348386
000200 59 9b 2b 3e 6d c2 e9 3d 73 3d db bd 4f 6b 44 bd
       0.16758479 0.11414037 -0.1070508 -0.0479539
000210 ef 30 06 3f 49 11 17 bf ff a7 10 3f ab 45 d2 be
       0.52418417 -0.5901075 0.5650634 -0.41068777
000220 0a 3c 20 3f 4a cb ac 3e 60 17 80 bf a6 d6 54 be
       0.6259161 0.33748847 -1.0007133 -0.20785007
000230 30 4b 0c c0 a8 80 59 3f 70 b6 55 bf d9 af bd 3e
       -2.192089 0.8496194 -0.834815 0.37048224
000240 fd 75 b1 be 4e 46 48 3c 84 79 46 3e ab cc 83 3e
       -0.3466033 0.012223793 0.19382292 0.25742087
000250 5c 7c 0c bf 28 ad d9 be 9a d4 a4 bf e8 2f 37 3f
       -0.5487726 -0.4251492 -1.2877381 0.71557474
000260 79 b1 0a 3e d7 e2 85 be 88 22 05 3f 9e e8 23 c0
       0.13544263 -0.26149628 0.52005816 -2.5610728
000270 48 15 2a 3c aa 33 ab be 18 76 0e 3f 22 9a a9 bf
       0.01038105 -0.33437854 0.55648947 -1.3250163
000280 46 c3 05 3e 4e c3 d1 3f 87 18 35 be 7d 98 11 bf
       0.13062772 1.6387727 -0.17685138 -0.56873304
000290 1e 4c ce be f4 a7 84 bf e1 a6 aa 3e df 05 6d 3e
       -0.40292448 -1.0363755 0.33330444 0.23146771
0002a0 c0 98 10 3f 49 97 a2 3e 58 82 8a bf 4b a9 25 3e
       0.5648308 0.31756046 -1.0821028 0.16177861
0002b0 0e b8 03 c0 4c 25 2f 3f e6 16 61 bd 5d 14 9a 3e
       -2.0581088 0.68416286 -0.05495348 0.3009366
0002c0 ef 22 0f bf 2b 4e 4d bd c4 ac 00 bf 22 7e 31 3e
       -0.5591268 -0.050123375 -0.5026362 0.17333272
0002d0 ed 48 cf be 0f be c0 be 17 b6 86 bf 06 18 60 3e
       -0.40485325 -0.37645003 -1.052432 0.21884164
0002e0 8d 11 ac 3e 81 a6 ca be c5 72 2d 3e 61 79 af c0
       0.3360714 -0.39580157 0.16938312 -5.4835668
0002f0 eb 8b d6 bc 0c 86 b7 bd 48 17 86 be 45 e2 73 bf
       -0.026189765 -0.08961114 -0.26189637 -0.95267135
000300 52 37 83 3d b1 40 00 40 5d 19 13 3f d7 ef a5 be
       0.06407036 2.0039485 0.57460576 -0.32409546
000310 aa 76 7e be 04 54 55 bf 0c 7b 12 3d c6 3c 9a be
       -0.24849954 -0.8333132 0.035761878 -0.3012449
000320 4b 71 d5 3c a4 6d 23 3e 36 74 1e be d7 47 4c c0
       0.026054999 0.15959793 -0.15474018 -3.1918848
000330 6c c1 6a 3e 21 c6 a4 3e b1 fb e4 bf 86 12 8e be
       0.22925347 0.3218241 -1.788931 -0.27748507
000340 74 65 48 be 71 fc d1 3c 4d 4b 82 bf d7 8d 2a bf
       -0.19569951 0.025633069 -1.017923 -0.6662268
000350 b2 3b 40 bf d2 ea 65 3e 09 de 25 3e c1 3a 11 be
       -0.7509109 0.22452858 0.16197981 -0.14182569
000360 d1 aa a0 bd f8 48 25 c0 49 b0 25 bf e6 77 5f be
       -0.07845081 -2.5825787 -0.64722115 -0.21823081
000370 42 08 9c 3e e7 38 a2 bf da 8c 92 bf 82 74 2c c0
       0.3047505 -1.2673615 -1.1449234 -2.694611
000380 78 17 1f be fb eb 8e 3f ce e9 e1 3e 50 e1 d7 bd
       -0.15536296 1.1165766 0.4412369 -0.10541022
000390 f1 e4 f6 be 97 f7 8a bf 99 9a 66 3d f9 ab 80 be
       -0.48221543 -1.0856808 0.05629978 -0.25131205
0003a0 e7 76 cb 3e f4 1a 91 3e 17 81 8a bd 46 eb 03 c0
       0.39739153 0.28340876 -0.06762903 -2.061235
0003b0 c5 b4 a2 3e df 41 f4 3e f0 2c 1f bf 87 06 9e be
       0.3177854 0.47706506 -0.62177944 -0.30864355
0003c0 01 b1 ca bd a3 b9 69 be fd ee 43 bd b0 e8 8a bf
       -0.09897042 -0.22824721 -0.04783534 -1.085226
0003d0 32 30 b6 bf 12 b6 c2 3e 9a f6 a2 3d 90 3d 46 be
       -1.4233458 0.38029534 0.07957192 -0.19359422
0003e0 d3 d9 a0 bf ca 0b a3 bf 1f 79 49 be ad 69 42 c0
       -1.2566475 -1.2737973 -0.1967511 -3.0377
0003f0 07 6e b2 3e f4 d0 60 bf 4a ad 33 bf 46 4e 0c c0
       0.3484957 -0.8781884 -0.70186293 -2.1922774
